{"format": "graph-model", "generatedBy": "2.4.0", "convertedBy": "TensorFlow.js Converter v3.18.0", "signature": {"inputs": {"input_tensor": {"name": "input_tensor:0", "dtype": "DT_UINT8", "tensorShape": {"dim": [{"size": "1"}, {"size": "-1"}, {"size": "-1"}, {"size": "3"}]}}}, "outputs": {"Identity_14:0": {"name": "Identity_14:0", "dtype": "DT_FLOAT", "tensorShape": {"dim": [{"size": "1"}, {"size": "300"}, {"size": "4"}]}}, "Identity_8:0": {"name": "Identity_8:0", "dtype": "DT_FLOAT", "tensorShape": {"dim": [{"size": "1"}, {"size": "100"}]}}, "rpn_box_predictor_features": {"name": "Identity_20:0", "dtype": "DT_FLOAT", "tensorShape": {"dim": [{"size": "1"}, {"size": "64"}, {"size": "64"}, {"size": "512"}]}}, "rpn_objectness_predictions_with_background": {"name": "Identity_22:0", "dtype": "DT_FLOAT", "tensorShape": {"dim": [{"size": "1"}, {"size": "49152"}, {"size": "2"}]}}, "rpn_features_to_crop": {"name": "Identity_21:0", "dtype": "DT_FLOAT", "tensorShape": {"dim": [{"size": "1"}, {"size": "64"}, {"size": "64"}, {"size": "1088"}]}}, "refined_box_encodings": {"name": "Identity_18:0", "dtype": "DT_FLOAT", "tensorShape": {"dim": [{"size": "300"}, {"size": "90"}, {"size": "4"}]}}, "detection_masks": {"name": "Identity_6:0", "dtype": "DT_FLOAT", "tensorShape": {"dim": [{"size": "1"}, {"size": "100"}, {"size": "33"}, {"size": "33"}]}}, "detection_multiclass_scores": {"name": "Identity_7:0", "dtype": "DT_FLOAT", "tensorShape": {"dim": [{"size": "1"}, {"size": "100"}, {"size": "91"}]}}, "box_classifier_features": {"name": "Identity_1:0", "dtype": "DT_FLOAT", "tensorShape": {"dim": [{"size": "300"}, {"size": "9"}, {"size": "9"}, {"size": "1536"}]}}, "Identity_16:0": {"name": "Identity_16:0", "dtype": "DT_FLOAT", "tensorShape": {"dim": [{"size": "1"}, {"size": "300"}, {"size": "4"}]}}, "mask_predictions": {"name": "Identity_11:0", "dtype": "DT_FLOAT", "tensorShape": {"dim": [{"size": "100"}, {"size": "90"}, {"size": "33"}, {"size": "33"}]}}, "detection_boxes": {"name": "Identity_4:0", "dtype": "DT_FLOAT", "tensorShape": {"dim": [{"size": "1"}, {"size": "100"}, {"size": "4"}]}}, "class_predictions_with_background": {"name": "Identity_2:0", "dtype": "DT_FLOAT", "tensorShape": {"dim": [{"size": "300"}, {"size": "91"}]}}, "Identity_15:0": {"name": "Identity_15:0", "dtype": "DT_FLOAT", "tensorShape": {"dim": [{"size": "1"}, {"size": "300"}, {"size": "4"}]}}, "Identity_12:0": {"name": "Identity_12:0", "dtype": "DT_FLOAT", "tensorShape": {"dim": [{"size": "1"}]}}, "Identity_13:0": {"name": "Identity_13:0", "dtype": "DT_FLOAT", "tensorShape": {"dim": [{"size": "1"}]}}, "image_shape": {"name": "Identity_10:0", "dtype": "DT_FLOAT", "tensorShape": {"dim": [{"size": "4"}]}}, "Identity_3:0": {"name": "Identity_3:0", "dtype": "DT_FLOAT", "tensorShape": {"dim": [{"size": "1"}, {"size": "100"}]}}, "rpn_box_encodings": {"name": "Identity_19:0", "dtype": "DT_FLOAT", "tensorShape": {"dim": [{"size": "1"}, {"size": "49152"}, {"size": "4"}]}}, "Identity_9:0": {"name": "Identity_9:0", "dtype": "DT_FLOAT", "tensorShape": {"dim": [{"size": "1"}, {"size": "300"}, {"size": "4"}]}}, "anchors": {"name": "Identity:0", "dtype": "DT_FLOAT", "tensorShape": {"dim": [{"size": "-1"}, {"size": "4"}]}}, "Identity_5:0": {"name": "Identity_5:0", "dtype": "DT_FLOAT", "tensorShape": {"dim": [{"size": "1"}, {"size": "100"}]}}, "raw_detection_scores": {"name": "Identity_17:0", "dtype": "DT_FLOAT", "tensorShape": {"dim": [{"size": "1"}, {"size": "300"}, {"size": "91"}]}}}}, "modelTopology": {"node": [{"name": "ConstantFolding/StatefulPartitionedCall/ClipToWindow_1/unstack-folded-2", "op": "Const", "attr": {"dtype": {"type": "DT_FLOAT"}, "value": {"tensor": {"dtype": "DT_FLOAT", "tensorShape": {}}}}}, {"name": "ConstantFolding/StatefulPartitionedCall/ClipToWindow_1/unstack-folded-0", "op": "Const", "attr": {"value": {"tensor": {"dtype": "DT_FLOAT", "tensorShape": {}}}, "dtype": {"type": "DT_FLOAT"}}}, {"name": "StatefulPartitionedCall/ClipToWindow_1/split/split_dim", "op": "Const", "attr": {"dtype": {"type": "DT_INT32"}, "value": {"tensor": {"dtype": "DT_INT32", "tensorShape": {}}}}}, {"name": "StatefulPartitionedCall/ToNormalizedCoordinates_2/truediv", "op": "Const", "attr": {"dtype": {"type": "DT_FLOAT"}, "value": {"tensor": {"dtype": "DT_FLOAT", "tensorShape": {}}}}}, {"name": "StatefulPartitionedCall/ToNormalizedCoordinates_2/truediv_1", "op": "Const", "attr": {"value": {"tensor": {"dtype": "DT_FLOAT", "tensorShape": {}}}, "dtype": {"type": "DT_FLOAT"}}}, {"name": "StatefulPartitionedCall/ToNormalizedCoordinates_2/Scale/split/split_dim", "op": "Const", "attr": {"value": {"tensor": {"dtype": "DT_INT32", "tensorShape": {}}}, "dtype": {"type": "DT_INT32"}}}, {"name": "StatefulPartitionedCall/BatchGather/concat", "op": "Const", "attr": {"value": {"tensor": {"dtype": "DT_INT32", "tensorShape": {"dim": [{"size": "2"}]}}}, "dtype": {"type": "DT_INT32"}}}, {"name": "StatefulPartitionedCall/strided_slice_17/stack", "op": "Const", "attr": {"dtype": {"type": "DT_INT32"}, "value": {"tensor": {"dtype": "DT_INT32", "tensorShape": {"dim": [{"size": "3"}]}}}}}, {"name": "StatefulPartitionedCall/strided_slice_17/stack_1", "op": "Const", "attr": {"dtype": {"type": "DT_INT32"}, "value": {"tensor": {"dtype": "DT_INT32", "tensorShape": {"dim": [{"size": "3"}]}}}}}, {"name": "StatefulPartitionedCall/strided_slice_17/stack_2", "op": "Const", "attr": {"dtype": {"type": "DT_INT32"}, "value": {"tensor": {"dtype": "DT_INT32", "tensorShape": {"dim": [{"size": "3"}]}}}}}, {"name": "StatefulPartitionedCall/ArgMax/dimension", "op": "Const", "attr": {"value": {"tensor": {"dtype": "DT_INT32", "tensorShape": {}}}, "dtype": {"type": "DT_INT32"}}}, {"name": "StatefulPartitionedCall/ExpandDims_8/dim", "op": "Const", "attr": {"value": {"tensor": {"dtype": "DT_INT32", "tensorShape": {}}}, "dtype": {"type": "DT_INT32"}}}, {"name": "StatefulPartitionedCall/BatchGather/add", "op": "Const", "attr": {"dtype": {"type": "DT_INT32"}, "value": {"tensor": {"dtype": "DT_INT32", "tensorShape": {"dim": [{"size": "1"}, {"size": "300"}, {"size": "1"}]}}}}}, {"name": "StatefulPartitionedCall/BatchGather/Reshape_2/shape", "op": "Const", "attr": {"dtype": {"type": "DT_INT32"}, "value": {"tensor": {"dtype": "DT_INT32", "tensorShape": {"dim": [{"size": "1"}]}}}}}, {"name": "StatefulPartitionedCall/BatchGather/GatherV2/axis", "op": "Const", "attr": {"dtype": {"type": "DT_INT32"}, "value": {"tensor": {"dtype": "DT_INT32", "tensorShape": {}}}}}, {"name": "StatefulPartitionedCall/BatchGather/concat_1", "op": "Const", "attr": {"value": {"tensor": {"dtype": "DT_INT32", "tensorShape": {"dim": [{"size": "4"}]}}}, "dtype": {"type": "DT_INT32"}}}, {"name": "StatefulPartitionedCall/ToNormalizedCoordinates_2/Scale/concat/axis", "op": "Const", "attr": {"dtype": {"type": "DT_INT32"}, "value": {"tensor": {"dtype": "DT_INT32", "tensorShape": {}}}}}, {"name": "ConstantFolding/StatefulPartitionedCall/ClipToWindow_1/unstack-folded-3", "op": "Const", "attr": {"value": {"tensor": {"dtype": "DT_FLOAT", "tensorShape": {}}}, "dtype": {"type": "DT_FLOAT"}}}, {"name": "ConstantFolding/StatefulPartitionedCall/ClipToWindow_1/unstack-folded-1", "op": "Const", "attr": {"dtype": {"type": "DT_FLOAT"}, "value": {"tensor": {"dtype": "DT_FLOAT", "tensorShape": {}}}}}, {"name": "StatefulPartitionedCall/ClipToWindow_1/concat/axis", "op": "Const", "attr": {"value": {"tensor": {"dtype": "DT_INT32", "tensorShape": {}}}, "dtype": {"type": "DT_INT32"}}}, {"name": "StatefulPartitionedCall/BatchMultiClassNonMaxSuppression_1/PadOrClipBoxList/zeros_7", "op": "Const", "attr": {"value": {"tensor": {"dtype": "DT_INT32", "tensorShape": {"dim": [{"size": "1"}]}}}, "dtype": {"type": "DT_INT32"}}}, {"name": "StatefulPartitionedCall/BatchMultiClassNonMaxSuppression_1/PadOrClipBoxList/sub_13/x", "op": "Const", "attr": {"value": {"tensor": {"dtype": "DT_INT32", "tensorShape": {}}}, "dtype": {"type": "DT_INT32"}}}, {"name": "StatefulPartitionedCall/BatchMultiClassNonMaxSuppression_1/PadOrClipBoxList/zeros_6", "op": "Const", "attr": {"value": {"tensor": {"dtype": "DT_INT32", "tensorShape": {"dim": [{"size": "1"}]}}}, "dtype": {"type": "DT_INT32"}}}, {"name": "StatefulPartitionedCall/BatchMultiClassNonMaxSuppression_1/MultiClassNonMaxSuppression/Gather/GatherV2_3/axis", "op": "Const", "attr": {"value": {"tensor": {"dtype": "DT_INT32", "tensorShape": {}}}, "dtype": {"type": "DT_INT32"}}}, {"name": "StatefulPartitionedCall/BatchMultiClassNonMaxSuppression_1/MultiClassNonMaxSuppression/Gather_1/GatherV2_3/axis", "op": "Const", "attr": {"value": {"tensor": {"dtype": "DT_INT32", "tensorShape": {}}}, "dtype": {"type": "DT_INT32"}}}, {"name": "StatefulPartitionedCall/BatchMultiClassNonMaxSuppression_1/MultiClassNonMaxSuppression/Gather_2/GatherV2_3/axis", "op": "Const", "attr": {"value": {"tensor": {"dtype": "DT_INT32", "tensorShape": {}}}, "dtype": {"type": "DT_INT32"}}}, {"name": "StatefulPartitionedCall/BatchMultiClassNonMaxSuppression_1/MultiClassNonMaxSuppression/Gather_3/GatherV2_3/axis", "op": "Const", "attr": {"value": {"tensor": {"dtype": "DT_INT32", "tensorShape": {}}}, "dtype": {"type": "DT_INT32"}}}, {"name": "StatefulPartitionedCall/BatchMultiClassNonMaxSuppression_1/MultiClassNonMaxSuppression/Gather_4/GatherV2_3/axis", "op": "Const", "attr": {"value": {"tensor": {"dtype": "DT_INT32", "tensorShape": {}}}, "dtype": {"type": "DT_INT32"}}}, {"name": "StatefulPartitionedCall/BatchMultiClassNonMaxSuppression_1/MultiClassNonMaxSuppression/Gather_5/GatherV2_3/axis", "op": "Const", "attr": {"dtype": {"type": "DT_INT32"}, "value": {"tensor": {"dtype": "DT_INT32", "tensorShape": {}}}}}, {"name": "StatefulPartitionedCall/BatchMultiClassNonMaxSuppression_1/MultiClassNonMaxSuppression/Gather_6/GatherV2_3/axis", "op": "Const", "attr": {"dtype": {"type": "DT_INT32"}, "value": {"tensor": {"dtype": "DT_INT32", "tensorShape": {}}}}}, {"name": "StatefulPartitionedCall/BatchMultiClassNonMaxSuppression_1/MultiClassNonMaxSuppression/Gather_7/GatherV2_3/axis", "op": "Const", "attr": {"value": {"tensor": {"dtype": "DT_INT32", "tensorShape": {}}}, "dtype": {"type": "DT_INT32"}}}, {"name": "StatefulPartitionedCall/BatchMultiClassNonMaxSuppression_1/MultiClassNonMaxSuppression/Gather_8/GatherV2_3/axis", "op": "Const", "attr": {"dtype": {"type": "DT_INT32"}, "value": {"tensor": {"dtype": "DT_INT32", "tensorShape": {}}}}}, {"name": "StatefulPartitionedCall/BatchMultiClassNonMaxSuppression_1/MultiClassNonMaxSuppression/Gather_9/GatherV2_3/axis", "op": "Const", "attr": {"dtype": {"type": "DT_INT32"}, "value": {"tensor": {"dtype": "DT_INT32", "tensorShape": {}}}}}, {"name": "StatefulPartitionedCall/BatchMultiClassNonMaxSuppression_1/MultiClassNonMaxSuppression/Gather_10/GatherV2_3/axis", "op": "Const", "attr": {"dtype": {"type": "DT_INT32"}, "value": {"tensor": {"dtype": "DT_INT32", "tensorShape": {}}}}}, {"name": "StatefulPartitionedCall/BatchMultiClassNonMaxSuppression_1/MultiClassNonMaxSuppression/Gather_11/GatherV2_3/axis", "op": "Const", "attr": {"value": {"tensor": {"dtype": "DT_INT32", "tensorShape": {}}}, "dtype": {"type": "DT_INT32"}}}, {"name": "StatefulPartitionedCall/BatchMultiClassNonMaxSuppression_1/MultiClassNonMaxSuppression/Gather_12/GatherV2_3/axis", "op": "Const", "attr": {"dtype": {"type": "DT_INT32"}, "value": {"tensor": {"dtype": "DT_INT32", "tensorShape": {}}}}}, {"name": "StatefulPartitionedCall/BatchMultiClassNonMaxSuppression_1/MultiClassNonMaxSuppression/Gather_13/GatherV2_3/axis", "op": "Const", "attr": {"dtype": {"type": "DT_INT32"}, "value": {"tensor": {"dtype": "DT_INT32", "tensorShape": {}}}}}, {"name": "StatefulPartitionedCall/BatchMultiClassNonMaxSuppression_1/MultiClassNonMaxSuppression/Gather_14/GatherV2_3/axis", "op": "Const", "attr": {"dtype": {"type": "DT_INT32"}, "value": {"tensor": {"dtype": "DT_INT32", "tensorShape": {}}}}}, {"name": "StatefulPartitionedCall/BatchMultiClassNonMaxSuppression_1/MultiClassNonMaxSuppression/Gather_15/GatherV2_3/axis", "op": "Const", "attr": {"value": {"tensor": {"dtype": "DT_INT32", "tensorShape": {}}}, "dtype": {"type": "DT_INT32"}}}, {"name": "StatefulPartitionedCall/BatchMultiClassNonMaxSuppression_1/MultiClassNonMaxSuppression/Gather_16/GatherV2_3/axis", "op": "Const", "attr": {"dtype": {"type": "DT_INT32"}, "value": {"tensor": {"dtype": "DT_INT32", "tensorShape": {}}}}}, {"name": "StatefulPartitionedCall/BatchMultiClassNonMaxSuppression_1/MultiClassNonMaxSuppression/Gather_17/GatherV2_3/axis", "op": "Const", "attr": {"value": {"tensor": {"dtype": "DT_INT32", "tensorShape": {}}}, "dtype": {"type": "DT_INT32"}}}, {"name": "StatefulPartitionedCall/BatchMultiClassNonMaxSuppression_1/MultiClassNonMaxSuppression/Gather_18/GatherV2_3/axis", "op": "Const", "attr": {"dtype": {"type": "DT_INT32"}, "value": {"tensor": {"dtype": "DT_INT32", "tensorShape": {}}}}}, {"name": "StatefulPartitionedCall/BatchMultiClassNonMaxSuppression_1/MultiClassNonMaxSuppression/Gather_19/GatherV2_3/axis", "op": "Const", "attr": {"dtype": {"type": "DT_INT32"}, "value": {"tensor": {"dtype": "DT_INT32", "tensorShape": {}}}}}, {"name": "StatefulPartitionedCall/BatchMultiClassNonMaxSuppression_1/MultiClassNonMaxSuppression/Gather_20/GatherV2_3/axis", "op": "Const", "attr": {"value": {"tensor": {"dtype": "DT_INT32", "tensorShape": {}}}, "dtype": {"type": "DT_INT32"}}}, {"name": "StatefulPartitionedCall/BatchMultiClassNonMaxSuppression_1/MultiClassNonMaxSuppression/Gather_21/GatherV2_3/axis", "op": "Const", "attr": {"value": {"tensor": {"dtype": "DT_INT32", "tensorShape": {}}}, "dtype": {"type": "DT_INT32"}}}, {"name": "StatefulPartitionedCall/BatchMultiClassNonMaxSuppression_1/MultiClassNonMaxSuppression/Gather_22/GatherV2_3/axis", "op": "Const", "attr": {"value": {"tensor": {"dtype": "DT_INT32", "tensorShape": {}}}, "dtype": {"type": "DT_INT32"}}}, {"name": "StatefulPartitionedCall/BatchMultiClassNonMaxSuppression_1/MultiClassNonMaxSuppression/Gather_23/GatherV2_3/axis", "op": "Const", "attr": {"dtype": {"type": "DT_INT32"}, "value": {"tensor": {"dtype": "DT_INT32", "tensorShape": {}}}}}, {"name": "StatefulPartitionedCall/BatchMultiClassNonMaxSuppression_1/MultiClassNonMaxSuppression/Gather_24/GatherV2_3/axis", "op": "Const", "attr": {"value": {"tensor": {"dtype": "DT_INT32", "tensorShape": {}}}, "dtype": {"type": "DT_INT32"}}}, {"name": "StatefulPartitionedCall/BatchMultiClassNonMaxSuppression_1/MultiClassNonMaxSuppression/Gather_25/GatherV2_3/axis", "op": "Const", "attr": {"dtype": {"type": "DT_INT32"}, "value": {"tensor": {"dtype": "DT_INT32", "tensorShape": {}}}}}, {"name": "StatefulPartitionedCall/BatchMultiClassNonMaxSuppression_1/MultiClassNonMaxSuppression/Gather_26/GatherV2_3/axis", "op": "Const", "attr": {"dtype": {"type": "DT_INT32"}, "value": {"tensor": {"dtype": "DT_INT32", "tensorShape": {}}}}}, {"name": "StatefulPartitionedCall/BatchMultiClassNonMaxSuppression_1/MultiClassNonMaxSuppression/Gather_27/GatherV2_3/axis", "op": "Const", "attr": {"dtype": {"type": "DT_INT32"}, "value": {"tensor": {"dtype": "DT_INT32", "tensorShape": {}}}}}, {"name": "StatefulPartitionedCall/BatchMultiClassNonMaxSuppression_1/MultiClassNonMaxSuppression/Gather_28/GatherV2_3/axis", "op": "Const", "attr": {"dtype": {"type": "DT_INT32"}, "value": {"tensor": {"dtype": "DT_INT32", "tensorShape": {}}}}}, {"name": "StatefulPartitionedCall/BatchMultiClassNonMaxSuppression_1/MultiClassNonMaxSuppression/Gather_29/GatherV2_3/axis", "op": "Const", "attr": {"value": {"tensor": {"dtype": "DT_INT32", "tensorShape": {}}}, "dtype": {"type": "DT_INT32"}}}, {"name": "StatefulPartitionedCall/BatchMultiClassNonMaxSuppression_1/MultiClassNonMaxSuppression/Gather_30/GatherV2_3/axis", "op": "Const", "attr": {"dtype": {"type": "DT_INT32"}, "value": {"tensor": {"dtype": "DT_INT32", "tensorShape": {}}}}}, {"name": "StatefulPartitionedCall/BatchMultiClassNonMaxSuppression_1/MultiClassNonMaxSuppression/Gather_31/GatherV2_3/axis", "op": "Const", "attr": {"value": {"tensor": {"dtype": "DT_INT32", "tensorShape": {}}}, "dtype": {"type": "DT_INT32"}}}, {"name": "StatefulPartitionedCall/BatchMultiClassNonMaxSuppression_1/MultiClassNonMaxSuppression/Gather_32/GatherV2_3/axis", "op": "Const", "attr": {"dtype": {"type": "DT_INT32"}, "value": {"tensor": {"dtype": "DT_INT32", "tensorShape": {}}}}}, {"name": "StatefulPartitionedCall/BatchMultiClassNonMaxSuppression_1/MultiClassNonMaxSuppression/Gather_33/GatherV2_3/axis", "op": "Const", "attr": {"dtype": {"type": "DT_INT32"}, "value": {"tensor": {"dtype": "DT_INT32", "tensorShape": {}}}}}, {"name": "StatefulPartitionedCall/BatchMultiClassNonMaxSuppression_1/MultiClassNonMaxSuppression/Gather_34/GatherV2_3/axis", "op": "Const", "attr": {"dtype": {"type": "DT_INT32"}, "value": {"tensor": {"dtype": "DT_INT32", "tensorShape": {}}}}}, {"name": "StatefulPartitionedCall/BatchMultiClassNonMaxSuppression_1/MultiClassNonMaxSuppression/Gather_35/GatherV2_3/axis", "op": "Const", "attr": {"value": {"tensor": {"dtype": "DT_INT32", "tensorShape": {}}}, "dtype": {"type": "DT_INT32"}}}, {"name": "StatefulPartitionedCall/BatchMultiClassNonMaxSuppression_1/MultiClassNonMaxSuppression/Gather_36/GatherV2_3/axis", "op": "Const", "attr": {"dtype": {"type": "DT_INT32"}, "value": {"tensor": {"dtype": "DT_INT32", "tensorShape": {}}}}}, {"name": "StatefulPartitionedCall/BatchMultiClassNonMaxSuppression_1/MultiClassNonMaxSuppression/Gather_37/GatherV2_3/axis", "op": "Const", "attr": {"value": {"tensor": {"dtype": "DT_INT32", "tensorShape": {}}}, "dtype": {"type": "DT_INT32"}}}, {"name": "StatefulPartitionedCall/BatchMultiClassNonMaxSuppression_1/MultiClassNonMaxSuppression/Gather_38/GatherV2_3/axis", "op": "Const", "attr": {"dtype": {"type": "DT_INT32"}, "value": {"tensor": {"dtype": "DT_INT32", "tensorShape": {}}}}}, {"name": "StatefulPartitionedCall/BatchMultiClassNonMaxSuppression_1/MultiClassNonMaxSuppression/Gather_39/GatherV2_3/axis", "op": "Const", "attr": {"dtype": {"type": "DT_INT32"}, "value": {"tensor": {"dtype": "DT_INT32", "tensorShape": {}}}}}, {"name": "StatefulPartitionedCall/BatchMultiClassNonMaxSuppression_1/MultiClassNonMaxSuppression/Gather_40/GatherV2_3/axis", "op": "Const", "attr": {"value": {"tensor": {"dtype": "DT_INT32", "tensorShape": {}}}, "dtype": {"type": "DT_INT32"}}}, {"name": "StatefulPartitionedCall/BatchMultiClassNonMaxSuppression_1/MultiClassNonMaxSuppression/Gather_41/GatherV2_3/axis", "op": "Const", "attr": {"dtype": {"type": "DT_INT32"}, "value": {"tensor": {"dtype": "DT_INT32", "tensorShape": {}}}}}, {"name": "StatefulPartitionedCall/BatchMultiClassNonMaxSuppression_1/MultiClassNonMaxSuppression/Gather_42/GatherV2_3/axis", "op": "Const", "attr": {"dtype": {"type": "DT_INT32"}, "value": {"tensor": {"dtype": "DT_INT32", "tensorShape": {}}}}}, {"name": "StatefulPartitionedCall/BatchMultiClassNonMaxSuppression_1/MultiClassNonMaxSuppression/Gather_43/GatherV2_3/axis", "op": "Const", "attr": {"dtype": {"type": "DT_INT32"}, "value": {"tensor": {"dtype": "DT_INT32", "tensorShape": {}}}}}, {"name": "StatefulPartitionedCall/BatchMultiClassNonMaxSuppression_1/MultiClassNonMaxSuppression/Gather_44/GatherV2_3/axis", "op": "Const", "attr": {"value": {"tensor": {"dtype": "DT_INT32", "tensorShape": {}}}, "dtype": {"type": "DT_INT32"}}}, {"name": "StatefulPartitionedCall/BatchMultiClassNonMaxSuppression_1/MultiClassNonMaxSuppression/Gather_45/GatherV2_3/axis", "op": "Const", "attr": {"dtype": {"type": "DT_INT32"}, "value": {"tensor": {"dtype": "DT_INT32", "tensorShape": {}}}}}, {"name": "StatefulPartitionedCall/BatchMultiClassNonMaxSuppression_1/MultiClassNonMaxSuppression/Gather_46/GatherV2_3/axis", "op": "Const", "attr": {"dtype": {"type": "DT_INT32"}, "value": {"tensor": {"dtype": "DT_INT32", "tensorShape": {}}}}}, {"name": "StatefulPartitionedCall/BatchMultiClassNonMaxSuppression_1/MultiClassNonMaxSuppression/Gather_47/GatherV2_3/axis", "op": "Const", "attr": {"value": {"tensor": {"dtype": "DT_INT32", "tensorShape": {}}}, "dtype": {"type": "DT_INT32"}}}, {"name": "StatefulPartitionedCall/BatchMultiClassNonMaxSuppression_1/MultiClassNonMaxSuppression/Gather_48/GatherV2_3/axis", "op": "Const", "attr": {"value": {"tensor": {"dtype": "DT_INT32", "tensorShape": {}}}, "dtype": {"type": "DT_INT32"}}}, {"name": "StatefulPartitionedCall/BatchMultiClassNonMaxSuppression_1/MultiClassNonMaxSuppression/Gather_49/GatherV2_3/axis", "op": "Const", "attr": {"value": {"tensor": {"dtype": "DT_INT32", "tensorShape": {}}}, "dtype": {"type": "DT_INT32"}}}, {"name": "StatefulPartitionedCall/BatchMultiClassNonMaxSuppression_1/MultiClassNonMaxSuppression/Gather_50/GatherV2_3/axis", "op": "Const", "attr": {"dtype": {"type": "DT_INT32"}, "value": {"tensor": {"dtype": "DT_INT32", "tensorShape": {}}}}}, {"name": "StatefulPartitionedCall/BatchMultiClassNonMaxSuppression_1/MultiClassNonMaxSuppression/Gather_51/GatherV2_3/axis", "op": "Const", "attr": {"dtype": {"type": "DT_INT32"}, "value": {"tensor": {"dtype": "DT_INT32", "tensorShape": {}}}}}, {"name": "StatefulPartitionedCall/BatchMultiClassNonMaxSuppression_1/MultiClassNonMaxSuppression/Gather_52/GatherV2_3/axis", "op": "Const", "attr": {"dtype": {"type": "DT_INT32"}, "value": {"tensor": {"dtype": "DT_INT32", "tensorShape": {}}}}}, {"name": "StatefulPartitionedCall/BatchMultiClassNonMaxSuppression_1/MultiClassNonMaxSuppression/Gather_53/GatherV2_3/axis", "op": "Const", "attr": {"dtype": {"type": "DT_INT32"}, "value": {"tensor": {"dtype": "DT_INT32", "tensorShape": {}}}}}, {"name": "StatefulPartitionedCall/BatchMultiClassNonMaxSuppression_1/MultiClassNonMaxSuppression/Gather_54/GatherV2_3/axis", "op": "Const", "attr": {"dtype": {"type": "DT_INT32"}, "value": {"tensor": {"dtype": "DT_INT32", "tensorShape": {}}}}}, {"name": "StatefulPartitionedCall/BatchMultiClassNonMaxSuppression_1/MultiClassNonMaxSuppression/Gather_55/GatherV2_3/axis", "op": "Const", "attr": {"value": {"tensor": {"dtype": "DT_INT32", "tensorShape": {}}}, "dtype": {"type": "DT_INT32"}}}, {"name": "StatefulPartitionedCall/BatchMultiClassNonMaxSuppression_1/MultiClassNonMaxSuppression/Gather_56/GatherV2_3/axis", "op": "Const", "attr": {"value": {"tensor": {"dtype": "DT_INT32", "tensorShape": {}}}, "dtype": {"type": "DT_INT32"}}}, {"name": "StatefulPartitionedCall/BatchMultiClassNonMaxSuppression_1/MultiClassNonMaxSuppression/Gather_57/GatherV2_3/axis", "op": "Const", "attr": {"dtype": {"type": "DT_INT32"}, "value": {"tensor": {"dtype": "DT_INT32", "tensorShape": {}}}}}, {"name": "StatefulPartitionedCall/BatchMultiClassNonMaxSuppression_1/MultiClassNonMaxSuppression/Gather_58/GatherV2_3/axis", "op": "Const", "attr": {"value": {"tensor": {"dtype": "DT_INT32", "tensorShape": {}}}, "dtype": {"type": "DT_INT32"}}}, {"name": "StatefulPartitionedCall/BatchMultiClassNonMaxSuppression_1/MultiClassNonMaxSuppression/Gather_59/GatherV2_3/axis", "op": "Const", "attr": {"dtype": {"type": "DT_INT32"}, "value": {"tensor": {"dtype": "DT_INT32", "tensorShape": {}}}}}, {"name": "StatefulPartitionedCall/BatchMultiClassNonMaxSuppression_1/MultiClassNonMaxSuppression/Gather_60/GatherV2_3/axis", "op": "Const", "attr": {"value": {"tensor": {"dtype": "DT_INT32", "tensorShape": {}}}, "dtype": {"type": "DT_INT32"}}}, {"name": "StatefulPartitionedCall/BatchMultiClassNonMaxSuppression_1/MultiClassNonMaxSuppression/Gather_61/GatherV2_3/axis", "op": "Const", "attr": {"value": {"tensor": {"dtype": "DT_INT32", "tensorShape": {}}}, "dtype": {"type": "DT_INT32"}}}, {"name": "StatefulPartitionedCall/BatchMultiClassNonMaxSuppression_1/MultiClassNonMaxSuppression/Gather_62/GatherV2_3/axis", "op": "Const", "attr": {"value": {"tensor": {"dtype": "DT_INT32", "tensorShape": {}}}, "dtype": {"type": "DT_INT32"}}}, {"name": "StatefulPartitionedCall/BatchMultiClassNonMaxSuppression_1/MultiClassNonMaxSuppression/Gather_63/GatherV2_3/axis", "op": "Const", "attr": {"value": {"tensor": {"dtype": "DT_INT32", "tensorShape": {}}}, "dtype": {"type": "DT_INT32"}}}, {"name": "StatefulPartitionedCall/BatchMultiClassNonMaxSuppression_1/MultiClassNonMaxSuppression/Gather_64/GatherV2_3/axis", "op": "Const", "attr": {"dtype": {"type": "DT_INT32"}, "value": {"tensor": {"dtype": "DT_INT32", "tensorShape": {}}}}}, {"name": "StatefulPartitionedCall/BatchMultiClassNonMaxSuppression_1/MultiClassNonMaxSuppression/Gather_65/GatherV2_3/axis", "op": "Const", "attr": {"value": {"tensor": {"dtype": "DT_INT32", "tensorShape": {}}}, "dtype": {"type": "DT_INT32"}}}, {"name": "StatefulPartitionedCall/BatchMultiClassNonMaxSuppression_1/MultiClassNonMaxSuppression/Gather_66/GatherV2_3/axis", "op": "Const", "attr": {"dtype": {"type": "DT_INT32"}, "value": {"tensor": {"dtype": "DT_INT32", "tensorShape": {}}}}}, {"name": "StatefulPartitionedCall/BatchMultiClassNonMaxSuppression_1/MultiClassNonMaxSuppression/Gather_67/GatherV2_3/axis", "op": "Const", "attr": {"value": {"tensor": {"dtype": "DT_INT32", "tensorShape": {}}}, "dtype": {"type": "DT_INT32"}}}, {"name": "StatefulPartitionedCall/BatchMultiClassNonMaxSuppression_1/MultiClassNonMaxSuppression/Gather_68/GatherV2_3/axis", "op": "Const", "attr": {"dtype": {"type": "DT_INT32"}, "value": {"tensor": {"dtype": "DT_INT32", "tensorShape": {}}}}}, {"name": "StatefulPartitionedCall/BatchMultiClassNonMaxSuppression_1/MultiClassNonMaxSuppression/Gather_69/GatherV2_3/axis", "op": "Const", "attr": {"dtype": {"type": "DT_INT32"}, "value": {"tensor": {"dtype": "DT_INT32", "tensorShape": {}}}}}, {"name": "StatefulPartitionedCall/BatchMultiClassNonMaxSuppression_1/MultiClassNonMaxSuppression/Gather_70/GatherV2_3/axis", "op": "Const", "attr": {"dtype": {"type": "DT_INT32"}, "value": {"tensor": {"dtype": "DT_INT32", "tensorShape": {}}}}}, {"name": "StatefulPartitionedCall/BatchMultiClassNonMaxSuppression_1/MultiClassNonMaxSuppression/Gather_71/GatherV2_3/axis", "op": "Const", "attr": {"dtype": {"type": "DT_INT32"}, "value": {"tensor": {"dtype": "DT_INT32", "tensorShape": {}}}}}, {"name": "StatefulPartitionedCall/BatchMultiClassNonMaxSuppression_1/MultiClassNonMaxSuppression/Gather_72/GatherV2_3/axis", "op": "Const", "attr": {"value": {"tensor": {"dtype": "DT_INT32", "tensorShape": {}}}, "dtype": {"type": "DT_INT32"}}}, {"name": "StatefulPartitionedCall/BatchMultiClassNonMaxSuppression_1/MultiClassNonMaxSuppression/Gather_73/GatherV2_3/axis", "op": "Const", "attr": {"value": {"tensor": {"dtype": "DT_INT32", "tensorShape": {}}}, "dtype": {"type": "DT_INT32"}}}, {"name": "StatefulPartitionedCall/BatchMultiClassNonMaxSuppression_1/MultiClassNonMaxSuppression/Gather_74/GatherV2_3/axis", "op": "Const", "attr": {"value": {"tensor": {"dtype": "DT_INT32", "tensorShape": {}}}, "dtype": {"type": "DT_INT32"}}}, {"name": "StatefulPartitionedCall/BatchMultiClassNonMaxSuppression_1/MultiClassNonMaxSuppression/Gather_75/GatherV2_3/axis", "op": "Const", "attr": {"dtype": {"type": "DT_INT32"}, "value": {"tensor": {"dtype": "DT_INT32", "tensorShape": {}}}}}, {"name": "StatefulPartitionedCall/BatchMultiClassNonMaxSuppression_1/MultiClassNonMaxSuppression/Gather_76/GatherV2_3/axis", "op": "Const", "attr": {"dtype": {"type": "DT_INT32"}, "value": {"tensor": {"dtype": "DT_INT32", "tensorShape": {}}}}}, {"name": "StatefulPartitionedCall/BatchMultiClassNonMaxSuppression_1/MultiClassNonMaxSuppression/Gather_77/GatherV2_3/axis", "op": "Const", "attr": {"dtype": {"type": "DT_INT32"}, "value": {"tensor": {"dtype": "DT_INT32", "tensorShape": {}}}}}, {"name": "StatefulPartitionedCall/BatchMultiClassNonMaxSuppression_1/MultiClassNonMaxSuppression/Gather_78/GatherV2_3/axis", "op": "Const", "attr": {"value": {"tensor": {"dtype": "DT_INT32", "tensorShape": {}}}, "dtype": {"type": "DT_INT32"}}}, {"name": "StatefulPartitionedCall/BatchMultiClassNonMaxSuppression_1/MultiClassNonMaxSuppression/Gather_79/GatherV2_3/axis", "op": "Const", "attr": {"value": {"tensor": {"dtype": "DT_INT32", "tensorShape": {}}}, "dtype": {"type": "DT_INT32"}}}, {"name": "StatefulPartitionedCall/BatchMultiClassNonMaxSuppression_1/MultiClassNonMaxSuppression/Gather_80/GatherV2_3/axis", "op": "Const", "attr": {"dtype": {"type": "DT_INT32"}, "value": {"tensor": {"dtype": "DT_INT32", "tensorShape": {}}}}}, {"name": "StatefulPartitionedCall/BatchMultiClassNonMaxSuppression_1/MultiClassNonMaxSuppression/Gather_81/GatherV2_3/axis", "op": "Const", "attr": {"dtype": {"type": "DT_INT32"}, "value": {"tensor": {"dtype": "DT_INT32", "tensorShape": {}}}}}, {"name": "StatefulPartitionedCall/BatchMultiClassNonMaxSuppression_1/MultiClassNonMaxSuppression/Gather_82/GatherV2_3/axis", "op": "Const", "attr": {"dtype": {"type": "DT_INT32"}, "value": {"tensor": {"dtype": "DT_INT32", "tensorShape": {}}}}}, {"name": "StatefulPartitionedCall/BatchMultiClassNonMaxSuppression_1/MultiClassNonMaxSuppression/Gather_83/GatherV2_3/axis", "op": "Const", "attr": {"value": {"tensor": {"dtype": "DT_INT32", "tensorShape": {}}}, "dtype": {"type": "DT_INT32"}}}, {"name": "StatefulPartitionedCall/BatchMultiClassNonMaxSuppression_1/MultiClassNonMaxSuppression/Gather_84/GatherV2_3/axis", "op": "Const", "attr": {"value": {"tensor": {"dtype": "DT_INT32", "tensorShape": {}}}, "dtype": {"type": "DT_INT32"}}}, {"name": "StatefulPartitionedCall/BatchMultiClassNonMaxSuppression_1/MultiClassNonMaxSuppression/Gather_85/GatherV2_3/axis", "op": "Const", "attr": {"dtype": {"type": "DT_INT32"}, "value": {"tensor": {"dtype": "DT_INT32", "tensorShape": {}}}}}, {"name": "StatefulPartitionedCall/BatchMultiClassNonMaxSuppression_1/MultiClassNonMaxSuppression/Gather_86/GatherV2_3/axis", "op": "Const", "attr": {"value": {"tensor": {"dtype": "DT_INT32", "tensorShape": {}}}, "dtype": {"type": "DT_INT32"}}}, {"name": "StatefulPartitionedCall/BatchMultiClassNonMaxSuppression_1/MultiClassNonMaxSuppression/Gather_87/GatherV2_3/axis", "op": "Const", "attr": {"dtype": {"type": "DT_INT32"}, "value": {"tensor": {"dtype": "DT_INT32", "tensorShape": {}}}}}, {"name": "StatefulPartitionedCall/BatchMultiClassNonMaxSuppression_1/MultiClassNonMaxSuppression/Gather_88/GatherV2_3/axis", "op": "Const", "attr": {"value": {"tensor": {"dtype": "DT_INT32", "tensorShape": {}}}, "dtype": {"type": "DT_INT32"}}}, {"name": "StatefulPartitionedCall/BatchMultiClassNonMaxSuppression_1/unstack_4", "op": "Const", "attr": {"value": {"tensor": {"dtype": "DT_FLOAT", "tensorShape": {"dim": [{"size": "300"}]}}}, "dtype": {"type": "DT_FLOAT"}}}, {"name": "StatefulPartitionedCall/BatchMultiClassNonMaxSuppression_1/Slice_3/begin", "op": "Const", "attr": {"value": {"tensor": {"dtype": "DT_INT32", "tensorShape": {"dim": [{"size": "1"}]}}}, "dtype": {"type": "DT_INT32"}}}, {"name": "StatefulPartitionedCall/BatchMultiClassNonMaxSuppression_1/MultiClassNonMaxSuppression/Gather_89/GatherV2_3/axis", "op": "Const", "attr": {"value": {"tensor": {"dtype": "DT_INT32", "tensorShape": {}}}, "dtype": {"type": "DT_INT32"}}}, {"name": "StatefulPartitionedCall/BatchMultiClassNonMaxSuppression_1/MultiClassNonMaxSuppression/Concatenate/concat_3/axis", "op": "Const", "attr": {"dtype": {"type": "DT_INT32"}, "value": {"tensor": {"dtype": "DT_INT32", "tensorShape": {}}}}}, {"name": "StatefulPartitionedCall/BatchMultiClassNonMaxSuppression_1/MultiClassNonMaxSuppression/SortByField/Gather/GatherV2_3/axis", "op": "Const", "attr": {"dtype": {"type": "DT_INT32"}, "value": {"tensor": {"dtype": "DT_INT32", "tensorShape": {}}}}}, {"name": "StatefulPartitionedCall/BatchMultiClassNonMaxSuppression_1/MultiClassNonMaxSuppression/ClipToWindow/Gather/GatherV2_3/axis", "op": "Const", "attr": {"value": {"tensor": {"dtype": "DT_INT32", "tensorShape": {}}}, "dtype": {"type": "DT_INT32"}}}, {"name": "StatefulPartitionedCall/BatchMultiClassNonMaxSuppression_1/MultiClassNonMaxSuppression/SortByField_1/Gather/GatherV2_3/axis", "op": "Const", "attr": {"value": {"tensor": {"dtype": "DT_INT32", "tensorShape": {}}}, "dtype": {"type": "DT_INT32"}}}, {"name": "StatefulPartitionedCall/BatchMultiClassNonMaxSuppression_1/MultiClassNonMaxSuppression/Gather_90/GatherV2_3/axis", "op": "Const", "attr": {"dtype": {"type": "DT_INT32"}, "value": {"tensor": {"dtype": "DT_INT32", "tensorShape": {}}}}}, {"name": "StatefulPartitionedCall/BatchMultiClassNonMaxSuppression_1/MultiClassNonMaxSuppression/Gather_91/GatherV2_3/axis", "op": "Const", "attr": {"dtype": {"type": "DT_INT32"}, "value": {"tensor": {"dtype": "DT_INT32", "tensorShape": {}}}}}, {"name": "StatefulPartitionedCall/BatchMultiClassNonMaxSuppression_1/PadOrClipBoxList/strided_slice_12/stack", "op": "Const", "attr": {"dtype": {"type": "DT_INT32"}, "value": {"tensor": {"dtype": "DT_INT32", "tensorShape": {"dim": [{"size": "1"}]}}}}}, {"name": "StatefulPartitionedCall/BatchMultiClassNonMaxSuppression_1/PadOrClipBoxList/strided_slice_12/stack_1", "op": "Const", "attr": {"value": {"tensor": {"dtype": "DT_INT32", "tensorShape": {"dim": [{"size": "1"}]}}}, "dtype": {"type": "DT_INT32"}}}, {"name": "StatefulPartitionedCall/BatchMultiClassNonMaxSuppression_1/PadOrClipBoxList/strided_slice_12/stack_2", "op": "Const", "attr": {"dtype": {"type": "DT_INT32"}, "value": {"tensor": {"dtype": "DT_INT32", "tensorShape": {"dim": [{"size": "1"}]}}}}}, {"name": "StatefulPartitionedCall/BatchMultiClassNonMaxSuppression_1/PadOrClipBoxList/sub_12/y", "op": "Const", "attr": {"dtype": {"type": "DT_INT32"}, "value": {"tensor": {"dtype": "DT_INT32", "tensorShape": {}}}}}, {"name": "StatefulPartitionedCall/BatchMultiClassNonMaxSuppression_1/PadOrClipBoxList/Greater_6/y", "op": "Const", "attr": {"dtype": {"type": "DT_INT32"}, "value": {"tensor": {"dtype": "DT_INT32", "tensorShape": {}}}}}, {"name": "StatefulPartitionedCall/BatchMultiClassNonMaxSuppression_1/PadOrClipBoxList/Select_6/t", "op": "Const", "attr": {"dtype": {"type": "DT_INT32"}, "value": {"tensor": {"dtype": "DT_INT32", "tensorShape": {}}}}}, {"name": "StatefulPartitionedCall/BatchMultiClassNonMaxSuppression_1/PadOrClipBoxList/Select_6/e", "op": "Const", "attr": {"value": {"tensor": {"dtype": "DT_INT32", "tensorShape": {}}}, "dtype": {"type": "DT_INT32"}}}, {"name": "StatefulPartitionedCall/BatchMultiClassNonMaxSuppression_1/PadOrClipBoxList/strided_slice_13/stack", "op": "Const", "attr": {"dtype": {"type": "DT_INT32"}, "value": {"tensor": {"dtype": "DT_INT32", "tensorShape": {"dim": [{"size": "1"}]}}}}}, {"name": "StatefulPartitionedCall/BatchMultiClassNonMaxSuppression_1/PadOrClipBoxList/strided_slice_13/stack_1", "op": "Const", "attr": {"dtype": {"type": "DT_INT32"}, "value": {"tensor": {"dtype": "DT_INT32", "tensorShape": {"dim": [{"size": "1"}]}}}}}, {"name": "StatefulPartitionedCall/BatchMultiClassNonMaxSuppression_1/PadOrClipBoxList/strided_slice_13/stack_2", "op": "Const", "attr": {"value": {"tensor": {"dtype": "DT_INT32", "tensorShape": {"dim": [{"size": "1"}]}}}, "dtype": {"type": "DT_INT32"}}}, {"name": "StatefulPartitionedCall/add_1/y", "op": "Const", "attr": {"dtype": {"type": "DT_FLOAT"}, "value": {"tensor": {"dtype": "DT_FLOAT", "tensorShape": {}}}}}, {"name": "StatefulPartitionedCall/BatchMultiClassNonMaxSuppression_1/PadOrClipBoxList/zeros_1", "op": "Const", "attr": {"dtype": {"type": "DT_INT32"}, "value": {"tensor": {"dtype": "DT_INT32", "tensorShape": {"dim": [{"size": "2"}]}}}}}, {"name": "StatefulPartitionedCall/BatchMultiClassNonMaxSuppression_1/PadOrClipBoxList/sub_2/x", "op": "Const", "attr": {"dtype": {"type": "DT_INT32"}, "value": {"tensor": {"dtype": "DT_INT32", "tensorShape": {}}}}}, {"name": "StatefulPartitionedCall/BatchMultiClassNonMaxSuppression_1/PadOrClipBoxList/strided_slice_2/stack", "op": "Const", "attr": {"value": {"tensor": {"dtype": "DT_INT32", "tensorShape": {"dim": [{"size": "1"}]}}}, "dtype": {"type": "DT_INT32"}}}, {"name": "StatefulPartitionedCall/BatchMultiClassNonMaxSuppression_1/PadOrClipBoxList/strided_slice_2/stack_1", "op": "Const", "attr": {"value": {"tensor": {"dtype": "DT_INT32", "tensorShape": {"dim": [{"size": "1"}]}}}, "dtype": {"type": "DT_INT32"}}}, {"name": "StatefulPartitionedCall/BatchMultiClassNonMaxSuppression_1/PadOrClipBoxList/strided_slice_2/stack_2", "op": "Const", "attr": {"dtype": {"type": "DT_INT32"}, "value": {"tensor": {"dtype": "DT_INT32", "tensorShape": {"dim": [{"size": "1"}]}}}}}, {"name": "StatefulPartitionedCall/BatchMultiClassNonMaxSuppression_1/PadOrClipBoxList/sub_3/x", "op": "Const", "attr": {"value": {"tensor": {"dtype": "DT_INT32", "tensorShape": {}}}, "dtype": {"type": "DT_INT32"}}}, {"name": "StatefulPartitionedCall/BatchMultiClassNonMaxSuppression_1/PadOrClipBoxList/zeros", "op": "Const", "attr": {"dtype": {"type": "DT_INT32"}, "value": {"tensor": {"dtype": "DT_INT32", "tensorShape": {"dim": [{"size": "2"}]}}}}}, {"name": "StatefulPartitionedCall/BatchMultiClassNonMaxSuppression_1/PadOrClipBoxList/strided_slice/stack", "op": "Const", "attr": {"dtype": {"type": "DT_INT32"}, "value": {"tensor": {"dtype": "DT_INT32", "tensorShape": {"dim": [{"size": "1"}]}}}}}, {"name": "StatefulPartitionedCall/BatchMultiClassNonMaxSuppression_1/PadOrClipBoxList/strided_slice/stack_1", "op": "Const", "attr": {"value": {"tensor": {"dtype": "DT_INT32", "tensorShape": {"dim": [{"size": "1"}]}}}, "dtype": {"type": "DT_INT32"}}}, {"name": "StatefulPartitionedCall/BatchMultiClassNonMaxSuppression_1/PadOrClipBoxList/strided_slice/stack_2", "op": "Const", "attr": {"value": {"tensor": {"dtype": "DT_INT32", "tensorShape": {"dim": [{"size": "1"}]}}}, "dtype": {"type": "DT_INT32"}}}, {"name": "StatefulPartitionedCall/BatchMultiClassNonMaxSuppression_1/PadOrClipBoxList/sub/y", "op": "Const", "attr": {"dtype": {"type": "DT_INT32"}, "value": {"tensor": {"dtype": "DT_INT32", "tensorShape": {}}}}}, {"name": "StatefulPartitionedCall/BatchMultiClassNonMaxSuppression_1/PadOrClipBoxList/Greater/y", "op": "Const", "attr": {"dtype": {"type": "DT_INT32"}, "value": {"tensor": {"dtype": "DT_INT32", "tensorShape": {}}}}}, {"name": "StatefulPartitionedCall/BatchMultiClassNonMaxSuppression_1/PadOrClipBoxList/Select/t", "op": "Const", "attr": {"dtype": {"type": "DT_INT32"}, "value": {"tensor": {"dtype": "DT_INT32", "tensorShape": {}}}}}, {"name": "StatefulPartitionedCall/BatchMultiClassNonMaxSuppression_1/PadOrClipBoxList/Select/e", "op": "Const", "attr": {"value": {"tensor": {"dtype": "DT_INT32", "tensorShape": {}}}, "dtype": {"type": "DT_INT32"}}}, {"name": "StatefulPartitionedCall/BatchMultiClassNonMaxSuppression_1/MultiClassNonMaxSuppression/Gather_90/GatherV2_6/axis", "op": "Const", "attr": {"dtype": {"type": "DT_INT32"}, "value": {"tensor": {"dtype": "DT_INT32", "tensorShape": {}}}}}, {"name": "StatefulPartitionedCall/BatchMultiClassNonMaxSuppression_1/MultiClassNonMaxSuppression/Gather_91/GatherV2_6/axis", "op": "Const", "attr": {"dtype": {"type": "DT_INT32"}, "value": {"tensor": {"dtype": "DT_INT32", "tensorShape": {}}}}}, {"name": "StatefulPartitionedCall/BatchMultiClassNonMaxSuppression_1/PadOrClipBoxList/strided_slice_1/stack", "op": "Const", "attr": {"dtype": {"type": "DT_INT32"}, "value": {"tensor": {"dtype": "DT_INT32", "tensorShape": {"dim": [{"size": "1"}]}}}}}, {"name": "StatefulPartitionedCall/BatchMultiClassNonMaxSuppression_1/PadOrClipBoxList/strided_slice_1/stack_1", "op": "Const", "attr": {"value": {"tensor": {"dtype": "DT_INT32", "tensorShape": {"dim": [{"size": "1"}]}}}, "dtype": {"type": "DT_INT32"}}}, {"name": "StatefulPartitionedCall/BatchMultiClassNonMaxSuppression_1/PadOrClipBoxList/strided_slice_1/stack_2", "op": "Const", "attr": {"dtype": {"type": "DT_INT32"}, "value": {"tensor": {"dtype": "DT_INT32", "tensorShape": {"dim": [{"size": "1"}]}}}}}, {"name": "StatefulPartitionedCall/BatchMultiClassNonMaxSuppression_1/PadOrClipBoxList/sub_1/y", "op": "Const", "attr": {"dtype": {"type": "DT_INT32"}, "value": {"tensor": {"dtype": "DT_INT32", "tensorShape": {}}}}}, {"name": "StatefulPartitionedCall/BatchMultiClassNonMaxSuppression_1/PadOrClipBoxList/Greater_1/y", "op": "Const", "attr": {"value": {"tensor": {"dtype": "DT_INT32", "tensorShape": {}}}, "dtype": {"type": "DT_INT32"}}}, {"name": "StatefulPartitionedCall/BatchMultiClassNonMaxSuppression_1/PadOrClipBoxList/Select_1/t", "op": "Const", "attr": {"value": {"tensor": {"dtype": "DT_INT32", "tensorShape": {}}}, "dtype": {"type": "DT_INT32"}}}, {"name": "StatefulPartitionedCall/BatchMultiClassNonMaxSuppression_1/PadOrClipBoxList/Select_1/e", "op": "Const", "attr": {"value": {"tensor": {"dtype": "DT_INT32", "tensorShape": {}}}, "dtype": {"type": "DT_INT32"}}}, {"name": "StatefulPartitionedCall/BatchMultiClassNonMaxSuppression_1/PadOrClipBoxList/strided_slice_3/stack", "op": "Const", "attr": {"value": {"tensor": {"dtype": "DT_INT32", "tensorShape": {"dim": [{"size": "1"}]}}}, "dtype": {"type": "DT_INT32"}}}, {"name": "StatefulPartitionedCall/BatchMultiClassNonMaxSuppression_1/PadOrClipBoxList/strided_slice_3/stack_1", "op": "Const", "attr": {"dtype": {"type": "DT_INT32"}, "value": {"tensor": {"dtype": "DT_INT32", "tensorShape": {"dim": [{"size": "1"}]}}}}}, {"name": "StatefulPartitionedCall/BatchMultiClassNonMaxSuppression_1/PadOrClipBoxList/strided_slice_3/stack_2", "op": "Const", "attr": {"dtype": {"type": "DT_INT32"}, "value": {"tensor": {"dtype": "DT_INT32", "tensorShape": {"dim": [{"size": "1"}]}}}}}, {"name": "StatefulPartitionedCall/CropAndResize_1/Reshape/shape", "op": "Const", "attr": {"dtype": {"type": "DT_INT32"}, "value": {"tensor": {"dtype": "DT_INT32", "tensorShape": {"dim": [{"size": "2"}]}}}}}, {"name": "StatefulPartitionedCall/CropAndResize_1/Reshape_1", "op": "Const", "attr": {"dtype": {"type": "DT_INT32"}, "value": {"tensor": {"dtype": "DT_INT32", "tensorShape": {"dim": [{"size": "100"}]}}}}}, {"name": "StatefulPartitionedCall/CropAndResize_1/CropAndResize/crop_size", "op": "Const", "attr": {"dtype": {"type": "DT_INT32"}, "value": {"tensor": {"dtype": "DT_INT32", "tensorShape": {"dim": [{"size": "2"}]}}}}}, {"name": "StatefulPartitionedCall/functional_3/mixed_7a/concat_1/axis", "op": "Const", "attr": {"dtype": {"type": "DT_INT32"}, "value": {"tensor": {"dtype": "DT_INT32", "tensorShape": {}}}}}, {"name": "StatefulPartitionedCall/functional_3/block8_1_mixed/concat_1/axis", "op": "Const", "attr": {"dtype": {"type": "DT_INT32"}, "value": {"tensor": {"dtype": "DT_INT32", "tensorShape": {}}}}}, {"name": "StatefulPartitionedCall/functional_3/block8_1/mul_1/y", "op": "Const", "attr": {"dtype": {"type": "DT_FLOAT"}, "value": {"tensor": {"dtype": "DT_FLOAT", "tensorShape": {}}}}}, {"name": "StatefulPartitionedCall/functional_3/block8_2_mixed/concat_1/axis", "op": "Const", "attr": {"dtype": {"type": "DT_INT32"}, "value": {"tensor": {"dtype": "DT_INT32", "tensorShape": {}}}}}, {"name": "StatefulPartitionedCall/functional_3/block8_2/mul_1/y", "op": "Const", "attr": {"value": {"tensor": {"dtype": "DT_FLOAT", "tensorShape": {}}}, "dtype": {"type": "DT_FLOAT"}}}, {"name": "StatefulPartitionedCall/functional_3/block8_3_mixed/concat_1/axis", "op": "Const", "attr": {"dtype": {"type": "DT_INT32"}, "value": {"tensor": {"dtype": "DT_INT32", "tensorShape": {}}}}}, {"name": "StatefulPartitionedCall/functional_3/block8_3/mul_1/y", "op": "Const", "attr": {"dtype": {"type": "DT_FLOAT"}, "value": {"tensor": {"dtype": "DT_FLOAT", "tensorShape": {}}}}}, {"name": "StatefulPartitionedCall/functional_3/block8_4_mixed/concat_1/axis", "op": "Const", "attr": {"value": {"tensor": {"dtype": "DT_INT32", "tensorShape": {}}}, "dtype": {"type": "DT_INT32"}}}, {"name": "StatefulPartitionedCall/functional_3/block8_4/mul_1/y", "op": "Const", "attr": {"value": {"tensor": {"dtype": "DT_FLOAT", "tensorShape": {}}}, "dtype": {"type": "DT_FLOAT"}}}, {"name": "StatefulPartitionedCall/functional_3/block8_5_mixed/concat_1/axis", "op": "Const", "attr": {"value": {"tensor": {"dtype": "DT_INT32", "tensorShape": {}}}, "dtype": {"type": "DT_INT32"}}}, {"name": "StatefulPartitionedCall/functional_3/block8_5/mul_1/y", "op": "Const", "attr": {"value": {"tensor": {"dtype": "DT_FLOAT", "tensorShape": {}}}, "dtype": {"type": "DT_FLOAT"}}}, {"name": "StatefulPartitionedCall/functional_3/block8_6_mixed/concat_1/axis", "op": "Const", "attr": {"dtype": {"type": "DT_INT32"}, "value": {"tensor": {"dtype": "DT_INT32", "tensorShape": {}}}}}, {"name": "StatefulPartitionedCall/functional_3/block8_6/mul_1/y", "op": "Const", "attr": {"dtype": {"type": "DT_FLOAT"}, "value": {"tensor": {"dtype": "DT_FLOAT", "tensorShape": {}}}}}, {"name": "StatefulPartitionedCall/functional_3/block8_7_mixed/concat_1/axis", "op": "Const", "attr": {"dtype": {"type": "DT_INT32"}, "value": {"tensor": {"dtype": "DT_INT32", "tensorShape": {}}}}}, {"name": "StatefulPartitionedCall/functional_3/block8_7/mul_1/y", "op": "Const", "attr": {"dtype": {"type": "DT_FLOAT"}, "value": {"tensor": {"dtype": "DT_FLOAT", "tensorShape": {}}}}}, {"name": "StatefulPartitionedCall/functional_3/block8_8_mixed/concat_1/axis", "op": "Const", "attr": {"dtype": {"type": "DT_INT32"}, "value": {"tensor": {"dtype": "DT_INT32", "tensorShape": {}}}}}, {"name": "StatefulPartitionedCall/functional_3/block8_8/mul_1/y", "op": "Const", "attr": {"value": {"tensor": {"dtype": "DT_FLOAT", "tensorShape": {}}}, "dtype": {"type": "DT_FLOAT"}}}, {"name": "StatefulPartitionedCall/functional_3/block8_9_mixed/concat_1/axis", "op": "Const", "attr": {"dtype": {"type": "DT_INT32"}, "value": {"tensor": {"dtype": "DT_INT32", "tensorShape": {}}}}}, {"name": "StatefulPartitionedCall/functional_3/block8_9/mul_1/y", "op": "Const", "attr": {"dtype": {"type": "DT_FLOAT"}, "value": {"tensor": {"dtype": "DT_FLOAT", "tensorShape": {}}}}}, {"name": "StatefulPartitionedCall/functional_3/block8_10_mixed/concat_1/axis", "op": "Const", "attr": {"dtype": {"type": "DT_INT32"}, "value": {"tensor": {"dtype": "DT_INT32", "tensorShape": {}}}}}, {"name": "StatefulPartitionedCall/mask_rcnn_keras_box_predictor/mask_rcnn_mask_head/ResizeBilinear/size", "op": "Const", "attr": {"value": {"tensor": {"dtype": "DT_INT32", "tensorShape": {"dim": [{"size": "2"}]}}}, "dtype": {"type": "DT_INT32"}}}, {"name": "unknown_1112", "op": "Const", "attr": {"dtype": {"type": "DT_FLOAT"}, "value": {"tensor": {"dtype": "DT_FLOAT", "tensorShape": {"dim": [{"size": "3"}, {"size": "3"}, {"size": "1536"}, {"size": "256"}]}}}}}, {"name": "unknown_1113", "op": "Const", "attr": {"value": {"tensor": {"dtype": "DT_FLOAT", "tensorShape": {"dim": [{"size": "256"}]}}}, "dtype": {"type": "DT_FLOAT"}}}, {"name": "unknown_1114", "op": "Const", "attr": {"dtype": {"type": "DT_FLOAT"}, "value": {"tensor": {"dtype": "DT_FLOAT", "tensorShape": {"dim": [{"size": "3"}, {"size": "3"}, {"size": "256"}, {"size": "256"}]}}}}}, {"name": "unknown_1115", "op": "Const", "attr": {"dtype": {"type": "DT_FLOAT"}, "value": {"tensor": {"dtype": "DT_FLOAT", "tensorShape": {"dim": [{"size": "256"}]}}}}}, {"name": "unknown_1116", "op": "Const", "attr": {"dtype": {"type": "DT_FLOAT"}, "value": {"tensor": {"dtype": "DT_FLOAT", "tensorShape": {"dim": [{"size": "3"}, {"size": "3"}, {"size": "256"}, {"size": "256"}]}}}}}, {"name": "unknown_1117", "op": "Const", "attr": {"value": {"tensor": {"dtype": "DT_FLOAT", "tensorShape": {"dim": [{"size": "256"}]}}}, "dtype": {"type": "DT_FLOAT"}}}, {"name": "unknown_1118", "op": "Const", "attr": {"dtype": {"type": "DT_FLOAT"}, "value": {"tensor": {"dtype": "DT_FLOAT", "tensorShape": {"dim": [{"size": "3"}, {"size": "3"}, {"size": "256"}, {"size": "90"}]}}}}}, {"name": "unknown_1119", "op": "Const", "attr": {"value": {"tensor": {"dtype": "DT_FLOAT", "tensorShape": {"dim": [{"size": "90"}]}}}, "dtype": {"type": "DT_FLOAT"}}}, {"name": "StatefulPartitionedCall/mask_rcnn_keras_box_predictor/mask_rcnn_mask_head/transpose/perm", "op": "Const", "attr": {"value": {"tensor": {"dtype": "DT_INT32", "tensorShape": {"dim": [{"size": "4"}]}}}, "dtype": {"type": "DT_INT32"}}}, {"name": "StatefulPartitionedCall/mask_rcnn_keras_box_predictor/mask_rcnn_mask_head/MaskPredictor/dim", "op": "Const", "attr": {"dtype": {"type": "DT_INT32"}, "value": {"tensor": {"dtype": "DT_INT32", "tensorShape": {}}}}}, {"name": "StatefulPartitionedCall/Reshape_12/shape", "op": "Const", "attr": {"value": {"tensor": {"dtype": "DT_INT32", "tensorShape": {"dim": [{"size": "3"}]}}}, "dtype": {"type": "DT_INT32"}}}, {"name": "StatefulPartitionedCall/mul_4", "op": "Const", "attr": {"value": {"tensor": {"dtype": "DT_INT32", "tensorShape": {"dim": [{"size": "100"}]}}}, "dtype": {"type": "DT_INT32"}}}, {"name": "StatefulPartitionedCall/BatchMultiClassNonMaxSuppression_1/PadOrClipBoxList/zeros_11", "op": "Const", "attr": {"value": {"tensor": {"dtype": "DT_INT32", "tensorShape": {"dim": [{"size": "1"}]}}}, "dtype": {"type": "DT_INT32"}}}, {"name": "StatefulPartitionedCall/BatchMultiClassNonMaxSuppression_1/PadOrClipBoxList/sub_19/x", "op": "Const", "attr": {"dtype": {"type": "DT_INT32"}, "value": {"tensor": {"dtype": "DT_INT32", "tensorShape": {}}}}}, {"name": "StatefulPartitionedCall/BatchMultiClassNonMaxSuppression_1/PadOrClipBoxList/zeros_10", "op": "Const", "attr": {"dtype": {"type": "DT_INT32"}, "value": {"tensor": {"dtype": "DT_INT32", "tensorShape": {"dim": [{"size": "1"}]}}}}}, {"name": "StatefulPartitionedCall/BatchMultiClassNonMaxSuppression_1/MultiClassNonMaxSuppression/add_1/y", "op": "Const", "attr": {"dtype": {"type": "DT_FLOAT"}, "value": {"tensor": {"dtype": "DT_FLOAT", "tensorShape": {}}}}}, {"name": "StatefulPartitionedCall/BatchMultiClassNonMaxSuppression_1/MultiClassNonMaxSuppression/add_3/y", "op": "Const", "attr": {"value": {"tensor": {"dtype": "DT_FLOAT", "tensorShape": {}}}, "dtype": {"type": "DT_FLOAT"}}}, {"name": "StatefulPartitionedCall/BatchMultiClassNonMaxSuppression_1/MultiClassNonMaxSuppression/add_5/y", "op": "Const", "attr": {"dtype": {"type": "DT_FLOAT"}, "value": {"tensor": {"dtype": "DT_FLOAT", "tensorShape": {}}}}}, {"name": "StatefulPartitionedCall/BatchMultiClassNonMaxSuppression_1/MultiClassNonMaxSuppression/add_7/y", "op": "Const", "attr": {"dtype": {"type": "DT_FLOAT"}, "value": {"tensor": {"dtype": "DT_FLOAT", "tensorShape": {}}}}}, {"name": "StatefulPartitionedCall/BatchMultiClassNonMaxSuppression_1/MultiClassNonMaxSuppression/add_9/y", "op": "Const", "attr": {"value": {"tensor": {"dtype": "DT_FLOAT", "tensorShape": {}}}, "dtype": {"type": "DT_FLOAT"}}}, {"name": "StatefulPartitionedCall/BatchMultiClassNonMaxSuppression_1/MultiClassNonMaxSuppression/add_11/y", "op": "Const", "attr": {"dtype": {"type": "DT_FLOAT"}, "value": {"tensor": {"dtype": "DT_FLOAT", "tensorShape": {}}}}}, {"name": "StatefulPartitionedCall/BatchMultiClassNonMaxSuppression_1/MultiClassNonMaxSuppression/add_13/y", "op": "Const", "attr": {"dtype": {"type": "DT_FLOAT"}, "value": {"tensor": {"dtype": "DT_FLOAT", "tensorShape": {}}}}}, {"name": "StatefulPartitionedCall/BatchMultiClassNonMaxSuppression_1/MultiClassNonMaxSuppression/add_15/y", "op": "Const", "attr": {"dtype": {"type": "DT_FLOAT"}, "value": {"tensor": {"dtype": "DT_FLOAT", "tensorShape": {}}}}}, {"name": "StatefulPartitionedCall/BatchMultiClassNonMaxSuppression_1/MultiClassNonMaxSuppression/add_17/y", "op": "Const", "attr": {"dtype": {"type": "DT_FLOAT"}, "value": {"tensor": {"dtype": "DT_FLOAT", "tensorShape": {}}}}}, {"name": "StatefulPartitionedCall/BatchMultiClassNonMaxSuppression_1/MultiClassNonMaxSuppression/add_19/y", "op": "Const", "attr": {"value": {"tensor": {"dtype": "DT_FLOAT", "tensorShape": {}}}, "dtype": {"type": "DT_FLOAT"}}}, {"name": "StatefulPartitionedCall/BatchMultiClassNonMaxSuppression_1/MultiClassNonMaxSuppression/add_21/y", "op": "Const", "attr": {"dtype": {"type": "DT_FLOAT"}, "value": {"tensor": {"dtype": "DT_FLOAT", "tensorShape": {}}}}}, {"name": "StatefulPartitionedCall/BatchMultiClassNonMaxSuppression_1/MultiClassNonMaxSuppression/add_23/y", "op": "Const", "attr": {"value": {"tensor": {"dtype": "DT_FLOAT", "tensorShape": {}}}, "dtype": {"type": "DT_FLOAT"}}}, {"name": "StatefulPartitionedCall/BatchMultiClassNonMaxSuppression_1/MultiClassNonMaxSuppression/add_25/y", "op": "Const", "attr": {"dtype": {"type": "DT_FLOAT"}, "value": {"tensor": {"dtype": "DT_FLOAT", "tensorShape": {}}}}}, {"name": "StatefulPartitionedCall/BatchMultiClassNonMaxSuppression_1/MultiClassNonMaxSuppression/add_27/y", "op": "Const", "attr": {"value": {"tensor": {"dtype": "DT_FLOAT", "tensorShape": {}}}, "dtype": {"type": "DT_FLOAT"}}}, {"name": "StatefulPartitionedCall/BatchMultiClassNonMaxSuppression_1/MultiClassNonMaxSuppression/add_29/y", "op": "Const", "attr": {"value": {"tensor": {"dtype": "DT_FLOAT", "tensorShape": {}}}, "dtype": {"type": "DT_FLOAT"}}}, {"name": "StatefulPartitionedCall/BatchMultiClassNonMaxSuppression_1/MultiClassNonMaxSuppression/add_31/y", "op": "Const", "attr": {"dtype": {"type": "DT_FLOAT"}, "value": {"tensor": {"dtype": "DT_FLOAT", "tensorShape": {}}}}}, {"name": "StatefulPartitionedCall/BatchMultiClassNonMaxSuppression_1/MultiClassNonMaxSuppression/add_33/y", "op": "Const", "attr": {"dtype": {"type": "DT_FLOAT"}, "value": {"tensor": {"dtype": "DT_FLOAT", "tensorShape": {}}}}}, {"name": "StatefulPartitionedCall/BatchMultiClassNonMaxSuppression_1/MultiClassNonMaxSuppression/add_35/y", "op": "Const", "attr": {"value": {"tensor": {"dtype": "DT_FLOAT", "tensorShape": {}}}, "dtype": {"type": "DT_FLOAT"}}}, {"name": "StatefulPartitionedCall/BatchMultiClassNonMaxSuppression_1/MultiClassNonMaxSuppression/add_37/y", "op": "Const", "attr": {"value": {"tensor": {"dtype": "DT_FLOAT", "tensorShape": {}}}, "dtype": {"type": "DT_FLOAT"}}}, {"name": "StatefulPartitionedCall/BatchMultiClassNonMaxSuppression_1/MultiClassNonMaxSuppression/add_39/y", "op": "Const", "attr": {"dtype": {"type": "DT_FLOAT"}, "value": {"tensor": {"dtype": "DT_FLOAT", "tensorShape": {}}}}}, {"name": "StatefulPartitionedCall/BatchMultiClassNonMaxSuppression_1/MultiClassNonMaxSuppression/add_41/y", "op": "Const", "attr": {"dtype": {"type": "DT_FLOAT"}, "value": {"tensor": {"dtype": "DT_FLOAT", "tensorShape": {}}}}}, {"name": "StatefulPartitionedCall/BatchMultiClassNonMaxSuppression_1/MultiClassNonMaxSuppression/add_43/y", "op": "Const", "attr": {"dtype": {"type": "DT_FLOAT"}, "value": {"tensor": {"dtype": "DT_FLOAT", "tensorShape": {}}}}}, {"name": "StatefulPartitionedCall/BatchMultiClassNonMaxSuppression_1/MultiClassNonMaxSuppression/add_45/y", "op": "Const", "attr": {"dtype": {"type": "DT_FLOAT"}, "value": {"tensor": {"dtype": "DT_FLOAT", "tensorShape": {}}}}}, {"name": "StatefulPartitionedCall/BatchMultiClassNonMaxSuppression_1/MultiClassNonMaxSuppression/add_47/y", "op": "Const", "attr": {"dtype": {"type": "DT_FLOAT"}, "value": {"tensor": {"dtype": "DT_FLOAT", "tensorShape": {}}}}}, {"name": "StatefulPartitionedCall/BatchMultiClassNonMaxSuppression_1/MultiClassNonMaxSuppression/add_49/y", "op": "Const", "attr": {"value": {"tensor": {"dtype": "DT_FLOAT", "tensorShape": {}}}, "dtype": {"type": "DT_FLOAT"}}}, {"name": "StatefulPartitionedCall/BatchMultiClassNonMaxSuppression_1/MultiClassNonMaxSuppression/add_51/y", "op": "Const", "attr": {"value": {"tensor": {"dtype": "DT_FLOAT", "tensorShape": {}}}, "dtype": {"type": "DT_FLOAT"}}}, {"name": "StatefulPartitionedCall/BatchMultiClassNonMaxSuppression_1/MultiClassNonMaxSuppression/add_53/y", "op": "Const", "attr": {"dtype": {"type": "DT_FLOAT"}, "value": {"tensor": {"dtype": "DT_FLOAT", "tensorShape": {}}}}}, {"name": "StatefulPartitionedCall/BatchMultiClassNonMaxSuppression_1/MultiClassNonMaxSuppression/add_55/y", "op": "Const", "attr": {"dtype": {"type": "DT_FLOAT"}, "value": {"tensor": {"dtype": "DT_FLOAT", "tensorShape": {}}}}}, {"name": "StatefulPartitionedCall/BatchMultiClassNonMaxSuppression_1/MultiClassNonMaxSuppression/add_57/y", "op": "Const", "attr": {"dtype": {"type": "DT_FLOAT"}, "value": {"tensor": {"dtype": "DT_FLOAT", "tensorShape": {}}}}}, {"name": "StatefulPartitionedCall/BatchMultiClassNonMaxSuppression_1/MultiClassNonMaxSuppression/add_59/y", "op": "Const", "attr": {"value": {"tensor": {"dtype": "DT_FLOAT", "tensorShape": {}}}, "dtype": {"type": "DT_FLOAT"}}}, {"name": "StatefulPartitionedCall/BatchMultiClassNonMaxSuppression_1/MultiClassNonMaxSuppression/add_61/y", "op": "Const", "attr": {"value": {"tensor": {"dtype": "DT_FLOAT", "tensorShape": {}}}, "dtype": {"type": "DT_FLOAT"}}}, {"name": "StatefulPartitionedCall/BatchMultiClassNonMaxSuppression_1/MultiClassNonMaxSuppression/add_63/y", "op": "Const", "attr": {"dtype": {"type": "DT_FLOAT"}, "value": {"tensor": {"dtype": "DT_FLOAT", "tensorShape": {}}}}}, {"name": "StatefulPartitionedCall/BatchMultiClassNonMaxSuppression_1/MultiClassNonMaxSuppression/add_65/y", "op": "Const", "attr": {"dtype": {"type": "DT_FLOAT"}, "value": {"tensor": {"dtype": "DT_FLOAT", "tensorShape": {}}}}}, {"name": "StatefulPartitionedCall/BatchMultiClassNonMaxSuppression_1/MultiClassNonMaxSuppression/add_67/y", "op": "Const", "attr": {"value": {"tensor": {"dtype": "DT_FLOAT", "tensorShape": {}}}, "dtype": {"type": "DT_FLOAT"}}}, {"name": "StatefulPartitionedCall/BatchMultiClassNonMaxSuppression_1/MultiClassNonMaxSuppression/add_69/y", "op": "Const", "attr": {"value": {"tensor": {"dtype": "DT_FLOAT", "tensorShape": {}}}, "dtype": {"type": "DT_FLOAT"}}}, {"name": "StatefulPartitionedCall/BatchMultiClassNonMaxSuppression_1/MultiClassNonMaxSuppression/add_71/y", "op": "Const", "attr": {"dtype": {"type": "DT_FLOAT"}, "value": {"tensor": {"dtype": "DT_FLOAT", "tensorShape": {}}}}}, {"name": "StatefulPartitionedCall/BatchMultiClassNonMaxSuppression_1/MultiClassNonMaxSuppression/add_73/y", "op": "Const", "attr": {"dtype": {"type": "DT_FLOAT"}, "value": {"tensor": {"dtype": "DT_FLOAT", "tensorShape": {}}}}}, {"name": "StatefulPartitionedCall/BatchMultiClassNonMaxSuppression_1/MultiClassNonMaxSuppression/add_75/y", "op": "Const", "attr": {"value": {"tensor": {"dtype": "DT_FLOAT", "tensorShape": {}}}, "dtype": {"type": "DT_FLOAT"}}}, {"name": "StatefulPartitionedCall/BatchMultiClassNonMaxSuppression_1/MultiClassNonMaxSuppression/add_77/y", "op": "Const", "attr": {"value": {"tensor": {"dtype": "DT_FLOAT", "tensorShape": {}}}, "dtype": {"type": "DT_FLOAT"}}}, {"name": "StatefulPartitionedCall/BatchMultiClassNonMaxSuppression_1/MultiClassNonMaxSuppression/add_79/y", "op": "Const", "attr": {"value": {"tensor": {"dtype": "DT_FLOAT", "tensorShape": {}}}, "dtype": {"type": "DT_FLOAT"}}}, {"name": "StatefulPartitionedCall/BatchMultiClassNonMaxSuppression_1/MultiClassNonMaxSuppression/add_81/y", "op": "Const", "attr": {"dtype": {"type": "DT_FLOAT"}, "value": {"tensor": {"dtype": "DT_FLOAT", "tensorShape": {}}}}}, {"name": "StatefulPartitionedCall/BatchMultiClassNonMaxSuppression_1/MultiClassNonMaxSuppression/add_83/y", "op": "Const", "attr": {"dtype": {"type": "DT_FLOAT"}, "value": {"tensor": {"dtype": "DT_FLOAT", "tensorShape": {}}}}}, {"name": "StatefulPartitionedCall/BatchMultiClassNonMaxSuppression_1/MultiClassNonMaxSuppression/add_85/y", "op": "Const", "attr": {"dtype": {"type": "DT_FLOAT"}, "value": {"tensor": {"dtype": "DT_FLOAT", "tensorShape": {}}}}}, {"name": "StatefulPartitionedCall/BatchMultiClassNonMaxSuppression_1/MultiClassNonMaxSuppression/add_87/y", "op": "Const", "attr": {"dtype": {"type": "DT_FLOAT"}, "value": {"tensor": {"dtype": "DT_FLOAT", "tensorShape": {}}}}}, {"name": "StatefulPartitionedCall/BatchMultiClassNonMaxSuppression_1/MultiClassNonMaxSuppression/add_89/y", "op": "Const", "attr": {"dtype": {"type": "DT_FLOAT"}, "value": {"tensor": {"dtype": "DT_FLOAT", "tensorShape": {}}}}}, {"name": "StatefulPartitionedCall/BatchMultiClassNonMaxSuppression_1/MultiClassNonMaxSuppression/add_91/y", "op": "Const", "attr": {"dtype": {"type": "DT_FLOAT"}, "value": {"tensor": {"dtype": "DT_FLOAT", "tensorShape": {}}}}}, {"name": "StatefulPartitionedCall/BatchMultiClassNonMaxSuppression_1/MultiClassNonMaxSuppression/add_93/y", "op": "Const", "attr": {"value": {"tensor": {"dtype": "DT_FLOAT", "tensorShape": {}}}, "dtype": {"type": "DT_FLOAT"}}}, {"name": "StatefulPartitionedCall/BatchMultiClassNonMaxSuppression_1/MultiClassNonMaxSuppression/add_95/y", "op": "Const", "attr": {"dtype": {"type": "DT_FLOAT"}, "value": {"tensor": {"dtype": "DT_FLOAT", "tensorShape": {}}}}}, {"name": "StatefulPartitionedCall/BatchMultiClassNonMaxSuppression_1/MultiClassNonMaxSuppression/add_97/y", "op": "Const", "attr": {"dtype": {"type": "DT_FLOAT"}, "value": {"tensor": {"dtype": "DT_FLOAT", "tensorShape": {}}}}}, {"name": "StatefulPartitionedCall/BatchMultiClassNonMaxSuppression_1/MultiClassNonMaxSuppression/add_99/y", "op": "Const", "attr": {"dtype": {"type": "DT_FLOAT"}, "value": {"tensor": {"dtype": "DT_FLOAT", "tensorShape": {}}}}}, {"name": "StatefulPartitionedCall/BatchMultiClassNonMaxSuppression_1/MultiClassNonMaxSuppression/add_101/y", "op": "Const", "attr": {"value": {"tensor": {"dtype": "DT_FLOAT", "tensorShape": {}}}, "dtype": {"type": "DT_FLOAT"}}}, {"name": "StatefulPartitionedCall/BatchMultiClassNonMaxSuppression_1/MultiClassNonMaxSuppression/add_103/y", "op": "Const", "attr": {"dtype": {"type": "DT_FLOAT"}, "value": {"tensor": {"dtype": "DT_FLOAT", "tensorShape": {}}}}}, {"name": "StatefulPartitionedCall/BatchMultiClassNonMaxSuppression_1/MultiClassNonMaxSuppression/add_105/y", "op": "Const", "attr": {"value": {"tensor": {"dtype": "DT_FLOAT", "tensorShape": {}}}, "dtype": {"type": "DT_FLOAT"}}}, {"name": "StatefulPartitionedCall/BatchMultiClassNonMaxSuppression_1/MultiClassNonMaxSuppression/add_107/y", "op": "Const", "attr": {"dtype": {"type": "DT_FLOAT"}, "value": {"tensor": {"dtype": "DT_FLOAT", "tensorShape": {}}}}}, {"name": "StatefulPartitionedCall/BatchMultiClassNonMaxSuppression_1/MultiClassNonMaxSuppression/add_109/y", "op": "Const", "attr": {"dtype": {"type": "DT_FLOAT"}, "value": {"tensor": {"dtype": "DT_FLOAT", "tensorShape": {}}}}}, {"name": "StatefulPartitionedCall/BatchMultiClassNonMaxSuppression_1/MultiClassNonMaxSuppression/add_111/y", "op": "Const", "attr": {"value": {"tensor": {"dtype": "DT_FLOAT", "tensorShape": {}}}, "dtype": {"type": "DT_FLOAT"}}}, {"name": "StatefulPartitionedCall/BatchMultiClassNonMaxSuppression_1/MultiClassNonMaxSuppression/add_113/y", "op": "Const", "attr": {"dtype": {"type": "DT_FLOAT"}, "value": {"tensor": {"dtype": "DT_FLOAT", "tensorShape": {}}}}}, {"name": "StatefulPartitionedCall/BatchMultiClassNonMaxSuppression_1/MultiClassNonMaxSuppression/add_115/y", "op": "Const", "attr": {"dtype": {"type": "DT_FLOAT"}, "value": {"tensor": {"dtype": "DT_FLOAT", "tensorShape": {}}}}}, {"name": "StatefulPartitionedCall/BatchMultiClassNonMaxSuppression_1/MultiClassNonMaxSuppression/add_117/y", "op": "Const", "attr": {"dtype": {"type": "DT_FLOAT"}, "value": {"tensor": {"dtype": "DT_FLOAT", "tensorShape": {}}}}}, {"name": "StatefulPartitionedCall/BatchMultiClassNonMaxSuppression_1/MultiClassNonMaxSuppression/add_119/y", "op": "Const", "attr": {"dtype": {"type": "DT_FLOAT"}, "value": {"tensor": {"dtype": "DT_FLOAT", "tensorShape": {}}}}}, {"name": "StatefulPartitionedCall/BatchMultiClassNonMaxSuppression_1/MultiClassNonMaxSuppression/add_121/y", "op": "Const", "attr": {"dtype": {"type": "DT_FLOAT"}, "value": {"tensor": {"dtype": "DT_FLOAT", "tensorShape": {}}}}}, {"name": "StatefulPartitionedCall/BatchMultiClassNonMaxSuppression_1/MultiClassNonMaxSuppression/add_123/y", "op": "Const", "attr": {"value": {"tensor": {"dtype": "DT_FLOAT", "tensorShape": {}}}, "dtype": {"type": "DT_FLOAT"}}}, {"name": "StatefulPartitionedCall/BatchMultiClassNonMaxSuppression_1/MultiClassNonMaxSuppression/add_125/y", "op": "Const", "attr": {"dtype": {"type": "DT_FLOAT"}, "value": {"tensor": {"dtype": "DT_FLOAT", "tensorShape": {}}}}}, {"name": "StatefulPartitionedCall/BatchMultiClassNonMaxSuppression_1/MultiClassNonMaxSuppression/add_127/y", "op": "Const", "attr": {"dtype": {"type": "DT_FLOAT"}, "value": {"tensor": {"dtype": "DT_FLOAT", "tensorShape": {}}}}}, {"name": "StatefulPartitionedCall/BatchMultiClassNonMaxSuppression_1/MultiClassNonMaxSuppression/add_129/y", "op": "Const", "attr": {"value": {"tensor": {"dtype": "DT_FLOAT", "tensorShape": {}}}, "dtype": {"type": "DT_FLOAT"}}}, {"name": "StatefulPartitionedCall/BatchMultiClassNonMaxSuppression_1/MultiClassNonMaxSuppression/add_131/y", "op": "Const", "attr": {"dtype": {"type": "DT_FLOAT"}, "value": {"tensor": {"dtype": "DT_FLOAT", "tensorShape": {}}}}}, {"name": "StatefulPartitionedCall/BatchMultiClassNonMaxSuppression_1/MultiClassNonMaxSuppression/add_133/y", "op": "Const", "attr": {"value": {"tensor": {"dtype": "DT_FLOAT", "tensorShape": {}}}, "dtype": {"type": "DT_FLOAT"}}}, {"name": "StatefulPartitionedCall/BatchMultiClassNonMaxSuppression_1/MultiClassNonMaxSuppression/add_135/y", "op": "Const", "attr": {"dtype": {"type": "DT_FLOAT"}, "value": {"tensor": {"dtype": "DT_FLOAT", "tensorShape": {}}}}}, {"name": "StatefulPartitionedCall/BatchMultiClassNonMaxSuppression_1/MultiClassNonMaxSuppression/add_137/y", "op": "Const", "attr": {"value": {"tensor": {"dtype": "DT_FLOAT", "tensorShape": {}}}, "dtype": {"type": "DT_FLOAT"}}}, {"name": "StatefulPartitionedCall/BatchMultiClassNonMaxSuppression_1/MultiClassNonMaxSuppression/add_139/y", "op": "Const", "attr": {"dtype": {"type": "DT_FLOAT"}, "value": {"tensor": {"dtype": "DT_FLOAT", "tensorShape": {}}}}}, {"name": "StatefulPartitionedCall/BatchMultiClassNonMaxSuppression_1/MultiClassNonMaxSuppression/add_141/y", "op": "Const", "attr": {"dtype": {"type": "DT_FLOAT"}, "value": {"tensor": {"dtype": "DT_FLOAT", "tensorShape": {}}}}}, {"name": "StatefulPartitionedCall/BatchMultiClassNonMaxSuppression_1/MultiClassNonMaxSuppression/add_143/y", "op": "Const", "attr": {"value": {"tensor": {"dtype": "DT_FLOAT", "tensorShape": {}}}, "dtype": {"type": "DT_FLOAT"}}}, {"name": "StatefulPartitionedCall/BatchMultiClassNonMaxSuppression_1/MultiClassNonMaxSuppression/add_145/y", "op": "Const", "attr": {"dtype": {"type": "DT_FLOAT"}, "value": {"tensor": {"dtype": "DT_FLOAT", "tensorShape": {}}}}}, {"name": "StatefulPartitionedCall/BatchMultiClassNonMaxSuppression_1/MultiClassNonMaxSuppression/add_147/y", "op": "Const", "attr": {"value": {"tensor": {"dtype": "DT_FLOAT", "tensorShape": {}}}, "dtype": {"type": "DT_FLOAT"}}}, {"name": "StatefulPartitionedCall/BatchMultiClassNonMaxSuppression_1/MultiClassNonMaxSuppression/add_149/y", "op": "Const", "attr": {"value": {"tensor": {"dtype": "DT_FLOAT", "tensorShape": {}}}, "dtype": {"type": "DT_FLOAT"}}}, {"name": "StatefulPartitionedCall/BatchMultiClassNonMaxSuppression_1/MultiClassNonMaxSuppression/add_151/y", "op": "Const", "attr": {"value": {"tensor": {"dtype": "DT_FLOAT", "tensorShape": {}}}, "dtype": {"type": "DT_FLOAT"}}}, {"name": "StatefulPartitionedCall/BatchMultiClassNonMaxSuppression_1/MultiClassNonMaxSuppression/add_153/y", "op": "Const", "attr": {"value": {"tensor": {"dtype": "DT_FLOAT", "tensorShape": {}}}, "dtype": {"type": "DT_FLOAT"}}}, {"name": "StatefulPartitionedCall/BatchMultiClassNonMaxSuppression_1/MultiClassNonMaxSuppression/add_155/y", "op": "Const", "attr": {"dtype": {"type": "DT_FLOAT"}, "value": {"tensor": {"dtype": "DT_FLOAT", "tensorShape": {}}}}}, {"name": "StatefulPartitionedCall/BatchMultiClassNonMaxSuppression_1/MultiClassNonMaxSuppression/add_157/y", "op": "Const", "attr": {"value": {"tensor": {"dtype": "DT_FLOAT", "tensorShape": {}}}, "dtype": {"type": "DT_FLOAT"}}}, {"name": "StatefulPartitionedCall/BatchMultiClassNonMaxSuppression_1/MultiClassNonMaxSuppression/add_159/y", "op": "Const", "attr": {"value": {"tensor": {"dtype": "DT_FLOAT", "tensorShape": {}}}, "dtype": {"type": "DT_FLOAT"}}}, {"name": "StatefulPartitionedCall/BatchMultiClassNonMaxSuppression_1/MultiClassNonMaxSuppression/add_161/y", "op": "Const", "attr": {"value": {"tensor": {"dtype": "DT_FLOAT", "tensorShape": {}}}, "dtype": {"type": "DT_FLOAT"}}}, {"name": "StatefulPartitionedCall/BatchMultiClassNonMaxSuppression_1/MultiClassNonMaxSuppression/add_163/y", "op": "Const", "attr": {"dtype": {"type": "DT_FLOAT"}, "value": {"tensor": {"dtype": "DT_FLOAT", "tensorShape": {}}}}}, {"name": "StatefulPartitionedCall/BatchMultiClassNonMaxSuppression_1/MultiClassNonMaxSuppression/add_165/y", "op": "Const", "attr": {"value": {"tensor": {"dtype": "DT_FLOAT", "tensorShape": {}}}, "dtype": {"type": "DT_FLOAT"}}}, {"name": "StatefulPartitionedCall/BatchMultiClassNonMaxSuppression_1/MultiClassNonMaxSuppression/add_167/y", "op": "Const", "attr": {"dtype": {"type": "DT_FLOAT"}, "value": {"tensor": {"dtype": "DT_FLOAT", "tensorShape": {}}}}}, {"name": "StatefulPartitionedCall/BatchMultiClassNonMaxSuppression_1/MultiClassNonMaxSuppression/add_169/y", "op": "Const", "attr": {"dtype": {"type": "DT_FLOAT"}, "value": {"tensor": {"dtype": "DT_FLOAT", "tensorShape": {}}}}}, {"name": "StatefulPartitionedCall/BatchMultiClassNonMaxSuppression_1/MultiClassNonMaxSuppression/add_171/y", "op": "Const", "attr": {"dtype": {"type": "DT_FLOAT"}, "value": {"tensor": {"dtype": "DT_FLOAT", "tensorShape": {}}}}}, {"name": "StatefulPartitionedCall/BatchMultiClassNonMaxSuppression_1/MultiClassNonMaxSuppression/add_173/y", "op": "Const", "attr": {"dtype": {"type": "DT_FLOAT"}, "value": {"tensor": {"dtype": "DT_FLOAT", "tensorShape": {}}}}}, {"name": "StatefulPartitionedCall/BatchMultiClassNonMaxSuppression_1/MultiClassNonMaxSuppression/add_175/y", "op": "Const", "attr": {"value": {"tensor": {"dtype": "DT_FLOAT", "tensorShape": {}}}, "dtype": {"type": "DT_FLOAT"}}}, {"name": "StatefulPartitionedCall/BatchMultiClassNonMaxSuppression_1/MultiClassNonMaxSuppression/add_177/y", "op": "Const", "attr": {"value": {"tensor": {"dtype": "DT_FLOAT", "tensorShape": {}}}, "dtype": {"type": "DT_FLOAT"}}}, {"name": "StatefulPartitionedCall/BatchMultiClassNonMaxSuppression_1/MultiClassNonMaxSuppression/add_179/y", "op": "Const", "attr": {"dtype": {"type": "DT_FLOAT"}, "value": {"tensor": {"dtype": "DT_FLOAT", "tensorShape": {}}}}}, {"name": "StatefulPartitionedCall/BatchMultiClassNonMaxSuppression_1/MultiClassNonMaxSuppression/Concatenate/concat_5/axis", "op": "Const", "attr": {"value": {"tensor": {"dtype": "DT_INT32", "tensorShape": {}}}, "dtype": {"type": "DT_INT32"}}}, {"name": "StatefulPartitionedCall/BatchMultiClassNonMaxSuppression_1/MultiClassNonMaxSuppression/SortByField/Gather/GatherV2_5/axis", "op": "Const", "attr": {"dtype": {"type": "DT_INT32"}, "value": {"tensor": {"dtype": "DT_INT32", "tensorShape": {}}}}}, {"name": "StatefulPartitionedCall/BatchMultiClassNonMaxSuppression_1/MultiClassNonMaxSuppression/ClipToWindow/Gather/GatherV2_5/axis", "op": "Const", "attr": {"value": {"tensor": {"dtype": "DT_INT32", "tensorShape": {}}}, "dtype": {"type": "DT_INT32"}}}, {"name": "StatefulPartitionedCall/BatchMultiClassNonMaxSuppression_1/MultiClassNonMaxSuppression/SortByField_1/Gather/GatherV2_5/axis", "op": "Const", "attr": {"dtype": {"type": "DT_INT32"}, "value": {"tensor": {"dtype": "DT_INT32", "tensorShape": {}}}}}, {"name": "StatefulPartitionedCall/BatchMultiClassNonMaxSuppression_1/MultiClassNonMaxSuppression/Gather_90/GatherV2_5/axis", "op": "Const", "attr": {"value": {"tensor": {"dtype": "DT_INT32", "tensorShape": {}}}, "dtype": {"type": "DT_INT32"}}}, {"name": "StatefulPartitionedCall/BatchMultiClassNonMaxSuppression_1/MultiClassNonMaxSuppression/Gather_91/GatherV2_5/axis", "op": "Const", "attr": {"dtype": {"type": "DT_INT32"}, "value": {"tensor": {"dtype": "DT_INT32", "tensorShape": {}}}}}, {"name": "StatefulPartitionedCall/BatchMultiClassNonMaxSuppression_1/PadOrClipBoxList/strided_slice_18/stack", "op": "Const", "attr": {"value": {"tensor": {"dtype": "DT_INT32", "tensorShape": {"dim": [{"size": "1"}]}}}, "dtype": {"type": "DT_INT32"}}}, {"name": "StatefulPartitionedCall/BatchMultiClassNonMaxSuppression_1/PadOrClipBoxList/strided_slice_18/stack_1", "op": "Const", "attr": {"value": {"tensor": {"dtype": "DT_INT32", "tensorShape": {"dim": [{"size": "1"}]}}}, "dtype": {"type": "DT_INT32"}}}, {"name": "StatefulPartitionedCall/BatchMultiClassNonMaxSuppression_1/PadOrClipBoxList/strided_slice_18/stack_2", "op": "Const", "attr": {"value": {"tensor": {"dtype": "DT_INT32", "tensorShape": {"dim": [{"size": "1"}]}}}, "dtype": {"type": "DT_INT32"}}}, {"name": "StatefulPartitionedCall/BatchMultiClassNonMaxSuppression_1/PadOrClipBoxList/sub_18/y", "op": "Const", "attr": {"dtype": {"type": "DT_INT32"}, "value": {"tensor": {"dtype": "DT_INT32", "tensorShape": {}}}}}, {"name": "StatefulPartitionedCall/BatchMultiClassNonMaxSuppression_1/PadOrClipBoxList/Greater_9/y", "op": "Const", "attr": {"dtype": {"type": "DT_INT32"}, "value": {"tensor": {"dtype": "DT_INT32", "tensorShape": {}}}}}, {"name": "StatefulPartitionedCall/BatchMultiClassNonMaxSuppression_1/PadOrClipBoxList/Select_9/t", "op": "Const", "attr": {"dtype": {"type": "DT_INT32"}, "value": {"tensor": {"dtype": "DT_INT32", "tensorShape": {}}}}}, {"name": "StatefulPartitionedCall/BatchMultiClassNonMaxSuppression_1/PadOrClipBoxList/Select_9/e", "op": "Const", "attr": {"dtype": {"type": "DT_INT32"}, "value": {"tensor": {"dtype": "DT_INT32", "tensorShape": {}}}}}, {"name": "StatefulPartitionedCall/BatchMultiClassNonMaxSuppression_1/PadOrClipBoxList/strided_slice_19/stack", "op": "Const", "attr": {"dtype": {"type": "DT_INT32"}, "value": {"tensor": {"dtype": "DT_INT32", "tensorShape": {"dim": [{"size": "1"}]}}}}}, {"name": "StatefulPartitionedCall/BatchMultiClassNonMaxSuppression_1/PadOrClipBoxList/strided_slice_19/stack_1", "op": "Const", "attr": {"dtype": {"type": "DT_INT32"}, "value": {"tensor": {"dtype": "DT_INT32", "tensorShape": {"dim": [{"size": "1"}]}}}}}, {"name": "StatefulPartitionedCall/BatchMultiClassNonMaxSuppression_1/PadOrClipBoxList/strided_slice_19/stack_2", "op": "Const", "attr": {"dtype": {"type": "DT_INT32"}, "value": {"tensor": {"dtype": "DT_INT32", "tensorShape": {"dim": [{"size": "1"}]}}}}}, {"name": "StatefulPartitionedCall/Reshape_13/shape", "op": "Const", "attr": {"dtype": {"type": "DT_INT32"}, "value": {"tensor": {"dtype": "DT_INT32", "tensorShape": {"dim": [{"size": "1"}]}}}}}, {"name": "StatefulPartitionedCall/GatherV2/axis", "op": "Const", "attr": {"dtype": {"type": "DT_INT32"}, "value": {"tensor": {"dtype": "DT_INT32", "tensorShape": {}}}}}, {"name": "StatefulPartitionedCall/Reshape_14/shape", "op": "Const", "attr": {"dtype": {"type": "DT_INT32"}, "value": {"tensor": {"dtype": "DT_INT32", "tensorShape": {"dim": [{"size": "4"}]}}}}}, {"name": "StatefulPartitionedCall/BatchMultiClassNonMaxSuppression_1/PadOrClipBoxList/zeros_9", "op": "Const", "attr": {"dtype": {"type": "DT_INT32"}, "value": {"tensor": {"dtype": "DT_INT32", "tensorShape": {"dim": [{"size": "2"}]}}}}}, {"name": "StatefulPartitionedCall/BatchMultiClassNonMaxSuppression_1/PadOrClipBoxList/sub_16/x", "op": "Const", "attr": {"dtype": {"type": "DT_INT32"}, "value": {"tensor": {"dtype": "DT_INT32", "tensorShape": {}}}}}, {"name": "StatefulPartitionedCall/BatchMultiClassNonMaxSuppression_1/PadOrClipBoxList/strided_slice_16/stack", "op": "Const", "attr": {"value": {"tensor": {"dtype": "DT_INT32", "tensorShape": {"dim": [{"size": "1"}]}}}, "dtype": {"type": "DT_INT32"}}}, {"name": "StatefulPartitionedCall/BatchMultiClassNonMaxSuppression_1/PadOrClipBoxList/strided_slice_16/stack_1", "op": "Const", "attr": {"value": {"tensor": {"dtype": "DT_INT32", "tensorShape": {"dim": [{"size": "1"}]}}}, "dtype": {"type": "DT_INT32"}}}, {"name": "StatefulPartitionedCall/BatchMultiClassNonMaxSuppression_1/PadOrClipBoxList/strided_slice_16/stack_2", "op": "Const", "attr": {"value": {"tensor": {"dtype": "DT_INT32", "tensorShape": {"dim": [{"size": "1"}]}}}, "dtype": {"type": "DT_INT32"}}}, {"name": "StatefulPartitionedCall/BatchMultiClassNonMaxSuppression_1/PadOrClipBoxList/sub_17/x", "op": "Const", "attr": {"dtype": {"type": "DT_INT32"}, "value": {"tensor": {"dtype": "DT_INT32", "tensorShape": {}}}}}, {"name": "StatefulPartitionedCall/BatchMultiClassNonMaxSuppression_1/PadOrClipBoxList/zeros_8", "op": "Const", "attr": {"dtype": {"type": "DT_INT32"}, "value": {"tensor": {"dtype": "DT_INT32", "tensorShape": {"dim": [{"size": "2"}]}}}}}, {"name": "StatefulPartitionedCall/BatchMultiClassNonMaxSuppression_1/PadOrClipBoxList/strided_slice_14/stack", "op": "Const", "attr": {"dtype": {"type": "DT_INT32"}, "value": {"tensor": {"dtype": "DT_INT32", "tensorShape": {"dim": [{"size": "1"}]}}}}}, {"name": "StatefulPartitionedCall/BatchMultiClassNonMaxSuppression_1/PadOrClipBoxList/strided_slice_14/stack_1", "op": "Const", "attr": {"value": {"tensor": {"dtype": "DT_INT32", "tensorShape": {"dim": [{"size": "1"}]}}}, "dtype": {"type": "DT_INT32"}}}, {"name": "StatefulPartitionedCall/BatchMultiClassNonMaxSuppression_1/PadOrClipBoxList/strided_slice_14/stack_2", "op": "Const", "attr": {"dtype": {"type": "DT_INT32"}, "value": {"tensor": {"dtype": "DT_INT32", "tensorShape": {"dim": [{"size": "1"}]}}}}}, {"name": "StatefulPartitionedCall/BatchMultiClassNonMaxSuppression_1/PadOrClipBoxList/sub_14/y", "op": "Const", "attr": {"value": {"tensor": {"dtype": "DT_INT32", "tensorShape": {}}}, "dtype": {"type": "DT_INT32"}}}, {"name": "StatefulPartitionedCall/BatchMultiClassNonMaxSuppression_1/PadOrClipBoxList/Greater_7/y", "op": "Const", "attr": {"dtype": {"type": "DT_INT32"}, "value": {"tensor": {"dtype": "DT_INT32", "tensorShape": {}}}}}, {"name": "StatefulPartitionedCall/BatchMultiClassNonMaxSuppression_1/PadOrClipBoxList/Select_7/t", "op": "Const", "attr": {"dtype": {"type": "DT_INT32"}, "value": {"tensor": {"dtype": "DT_INT32", "tensorShape": {}}}}}, {"name": "StatefulPartitionedCall/BatchMultiClassNonMaxSuppression_1/PadOrClipBoxList/Select_7/e", "op": "Const", "attr": {"dtype": {"type": "DT_INT32"}, "value": {"tensor": {"dtype": "DT_INT32", "tensorShape": {}}}}}, {"name": "StatefulPartitionedCall/BatchMultiClassNonMaxSuppression_1/MultiClassNonMaxSuppression/Gather/GatherV2_4/axis", "op": "Const", "attr": {"value": {"tensor": {"dtype": "DT_INT32", "tensorShape": {}}}, "dtype": {"type": "DT_INT32"}}}, {"name": "StatefulPartitionedCall/BatchMultiClassNonMaxSuppression_1/MultiClassNonMaxSuppression/Gather_1/GatherV2_4/axis", "op": "Const", "attr": {"value": {"tensor": {"dtype": "DT_INT32", "tensorShape": {}}}, "dtype": {"type": "DT_INT32"}}}, {"name": "StatefulPartitionedCall/BatchMultiClassNonMaxSuppression_1/MultiClassNonMaxSuppression/Gather_2/GatherV2_4/axis", "op": "Const", "attr": {"value": {"tensor": {"dtype": "DT_INT32", "tensorShape": {}}}, "dtype": {"type": "DT_INT32"}}}, {"name": "StatefulPartitionedCall/BatchMultiClassNonMaxSuppression_1/MultiClassNonMaxSuppression/Gather_3/GatherV2_4/axis", "op": "Const", "attr": {"value": {"tensor": {"dtype": "DT_INT32", "tensorShape": {}}}, "dtype": {"type": "DT_INT32"}}}, {"name": "StatefulPartitionedCall/BatchMultiClassNonMaxSuppression_1/MultiClassNonMaxSuppression/Gather_4/GatherV2_4/axis", "op": "Const", "attr": {"dtype": {"type": "DT_INT32"}, "value": {"tensor": {"dtype": "DT_INT32", "tensorShape": {}}}}}, {"name": "StatefulPartitionedCall/BatchMultiClassNonMaxSuppression_1/MultiClassNonMaxSuppression/Gather_5/GatherV2_4/axis", "op": "Const", "attr": {"value": {"tensor": {"dtype": "DT_INT32", "tensorShape": {}}}, "dtype": {"type": "DT_INT32"}}}, {"name": "StatefulPartitionedCall/BatchMultiClassNonMaxSuppression_1/MultiClassNonMaxSuppression/Gather_6/GatherV2_4/axis", "op": "Const", "attr": {"value": {"tensor": {"dtype": "DT_INT32", "tensorShape": {}}}, "dtype": {"type": "DT_INT32"}}}, {"name": "StatefulPartitionedCall/BatchMultiClassNonMaxSuppression_1/MultiClassNonMaxSuppression/Gather_7/GatherV2_4/axis", "op": "Const", "attr": {"value": {"tensor": {"dtype": "DT_INT32", "tensorShape": {}}}, "dtype": {"type": "DT_INT32"}}}, {"name": "StatefulPartitionedCall/BatchMultiClassNonMaxSuppression_1/MultiClassNonMaxSuppression/Gather_8/GatherV2_4/axis", "op": "Const", "attr": {"dtype": {"type": "DT_INT32"}, "value": {"tensor": {"dtype": "DT_INT32", "tensorShape": {}}}}}, {"name": "StatefulPartitionedCall/BatchMultiClassNonMaxSuppression_1/MultiClassNonMaxSuppression/Gather_9/GatherV2_4/axis", "op": "Const", "attr": {"value": {"tensor": {"dtype": "DT_INT32", "tensorShape": {}}}, "dtype": {"type": "DT_INT32"}}}, {"name": "StatefulPartitionedCall/BatchMultiClassNonMaxSuppression_1/MultiClassNonMaxSuppression/Gather_10/GatherV2_4/axis", "op": "Const", "attr": {"dtype": {"type": "DT_INT32"}, "value": {"tensor": {"dtype": "DT_INT32", "tensorShape": {}}}}}, {"name": "StatefulPartitionedCall/BatchMultiClassNonMaxSuppression_1/MultiClassNonMaxSuppression/Gather_11/GatherV2_4/axis", "op": "Const", "attr": {"value": {"tensor": {"dtype": "DT_INT32", "tensorShape": {}}}, "dtype": {"type": "DT_INT32"}}}, {"name": "StatefulPartitionedCall/BatchMultiClassNonMaxSuppression_1/MultiClassNonMaxSuppression/Gather_12/GatherV2_4/axis", "op": "Const", "attr": {"value": {"tensor": {"dtype": "DT_INT32", "tensorShape": {}}}, "dtype": {"type": "DT_INT32"}}}, {"name": "StatefulPartitionedCall/BatchMultiClassNonMaxSuppression_1/MultiClassNonMaxSuppression/Gather_13/GatherV2_4/axis", "op": "Const", "attr": {"dtype": {"type": "DT_INT32"}, "value": {"tensor": {"dtype": "DT_INT32", "tensorShape": {}}}}}, {"name": "StatefulPartitionedCall/BatchMultiClassNonMaxSuppression_1/MultiClassNonMaxSuppression/Gather_14/GatherV2_4/axis", "op": "Const", "attr": {"value": {"tensor": {"dtype": "DT_INT32", "tensorShape": {}}}, "dtype": {"type": "DT_INT32"}}}, {"name": "StatefulPartitionedCall/BatchMultiClassNonMaxSuppression_1/MultiClassNonMaxSuppression/Gather_15/GatherV2_4/axis", "op": "Const", "attr": {"dtype": {"type": "DT_INT32"}, "value": {"tensor": {"dtype": "DT_INT32", "tensorShape": {}}}}}, {"name": "StatefulPartitionedCall/BatchMultiClassNonMaxSuppression_1/MultiClassNonMaxSuppression/Gather_16/GatherV2_4/axis", "op": "Const", "attr": {"value": {"tensor": {"dtype": "DT_INT32", "tensorShape": {}}}, "dtype": {"type": "DT_INT32"}}}, {"name": "StatefulPartitionedCall/BatchMultiClassNonMaxSuppression_1/MultiClassNonMaxSuppression/Gather_17/GatherV2_4/axis", "op": "Const", "attr": {"dtype": {"type": "DT_INT32"}, "value": {"tensor": {"dtype": "DT_INT32", "tensorShape": {}}}}}, {"name": "StatefulPartitionedCall/BatchMultiClassNonMaxSuppression_1/MultiClassNonMaxSuppression/Gather_18/GatherV2_4/axis", "op": "Const", "attr": {"value": {"tensor": {"dtype": "DT_INT32", "tensorShape": {}}}, "dtype": {"type": "DT_INT32"}}}, {"name": "StatefulPartitionedCall/BatchMultiClassNonMaxSuppression_1/MultiClassNonMaxSuppression/Gather_19/GatherV2_4/axis", "op": "Const", "attr": {"dtype": {"type": "DT_INT32"}, "value": {"tensor": {"dtype": "DT_INT32", "tensorShape": {}}}}}, {"name": "StatefulPartitionedCall/BatchMultiClassNonMaxSuppression_1/MultiClassNonMaxSuppression/Gather_20/GatherV2_4/axis", "op": "Const", "attr": {"dtype": {"type": "DT_INT32"}, "value": {"tensor": {"dtype": "DT_INT32", "tensorShape": {}}}}}, {"name": "StatefulPartitionedCall/BatchMultiClassNonMaxSuppression_1/MultiClassNonMaxSuppression/Gather_21/GatherV2_4/axis", "op": "Const", "attr": {"value": {"tensor": {"dtype": "DT_INT32", "tensorShape": {}}}, "dtype": {"type": "DT_INT32"}}}, {"name": "StatefulPartitionedCall/BatchMultiClassNonMaxSuppression_1/MultiClassNonMaxSuppression/Gather_22/GatherV2_4/axis", "op": "Const", "attr": {"value": {"tensor": {"dtype": "DT_INT32", "tensorShape": {}}}, "dtype": {"type": "DT_INT32"}}}, {"name": "StatefulPartitionedCall/BatchMultiClassNonMaxSuppression_1/MultiClassNonMaxSuppression/Gather_23/GatherV2_4/axis", "op": "Const", "attr": {"value": {"tensor": {"dtype": "DT_INT32", "tensorShape": {}}}, "dtype": {"type": "DT_INT32"}}}, {"name": "StatefulPartitionedCall/BatchMultiClassNonMaxSuppression_1/MultiClassNonMaxSuppression/Gather_24/GatherV2_4/axis", "op": "Const", "attr": {"dtype": {"type": "DT_INT32"}, "value": {"tensor": {"dtype": "DT_INT32", "tensorShape": {}}}}}, {"name": "StatefulPartitionedCall/BatchMultiClassNonMaxSuppression_1/MultiClassNonMaxSuppression/Gather_25/GatherV2_4/axis", "op": "Const", "attr": {"value": {"tensor": {"dtype": "DT_INT32", "tensorShape": {}}}, "dtype": {"type": "DT_INT32"}}}, {"name": "StatefulPartitionedCall/BatchMultiClassNonMaxSuppression_1/MultiClassNonMaxSuppression/Gather_26/GatherV2_4/axis", "op": "Const", "attr": {"value": {"tensor": {"dtype": "DT_INT32", "tensorShape": {}}}, "dtype": {"type": "DT_INT32"}}}, {"name": "StatefulPartitionedCall/BatchMultiClassNonMaxSuppression_1/MultiClassNonMaxSuppression/Gather_27/GatherV2_4/axis", "op": "Const", "attr": {"dtype": {"type": "DT_INT32"}, "value": {"tensor": {"dtype": "DT_INT32", "tensorShape": {}}}}}, {"name": "StatefulPartitionedCall/BatchMultiClassNonMaxSuppression_1/MultiClassNonMaxSuppression/Gather_28/GatherV2_4/axis", "op": "Const", "attr": {"dtype": {"type": "DT_INT32"}, "value": {"tensor": {"dtype": "DT_INT32", "tensorShape": {}}}}}, {"name": "StatefulPartitionedCall/BatchMultiClassNonMaxSuppression_1/MultiClassNonMaxSuppression/Gather_29/GatherV2_4/axis", "op": "Const", "attr": {"value": {"tensor": {"dtype": "DT_INT32", "tensorShape": {}}}, "dtype": {"type": "DT_INT32"}}}, {"name": "StatefulPartitionedCall/BatchMultiClassNonMaxSuppression_1/MultiClassNonMaxSuppression/Gather_30/GatherV2_4/axis", "op": "Const", "attr": {"dtype": {"type": "DT_INT32"}, "value": {"tensor": {"dtype": "DT_INT32", "tensorShape": {}}}}}, {"name": "StatefulPartitionedCall/BatchMultiClassNonMaxSuppression_1/MultiClassNonMaxSuppression/Gather_31/GatherV2_4/axis", "op": "Const", "attr": {"value": {"tensor": {"dtype": "DT_INT32", "tensorShape": {}}}, "dtype": {"type": "DT_INT32"}}}, {"name": "StatefulPartitionedCall/BatchMultiClassNonMaxSuppression_1/MultiClassNonMaxSuppression/Gather_32/GatherV2_4/axis", "op": "Const", "attr": {"dtype": {"type": "DT_INT32"}, "value": {"tensor": {"dtype": "DT_INT32", "tensorShape": {}}}}}, {"name": "StatefulPartitionedCall/BatchMultiClassNonMaxSuppression_1/MultiClassNonMaxSuppression/Gather_33/GatherV2_4/axis", "op": "Const", "attr": {"dtype": {"type": "DT_INT32"}, "value": {"tensor": {"dtype": "DT_INT32", "tensorShape": {}}}}}, {"name": "StatefulPartitionedCall/BatchMultiClassNonMaxSuppression_1/MultiClassNonMaxSuppression/Gather_34/GatherV2_4/axis", "op": "Const", "attr": {"dtype": {"type": "DT_INT32"}, "value": {"tensor": {"dtype": "DT_INT32", "tensorShape": {}}}}}, {"name": "StatefulPartitionedCall/BatchMultiClassNonMaxSuppression_1/MultiClassNonMaxSuppression/Gather_35/GatherV2_4/axis", "op": "Const", "attr": {"value": {"tensor": {"dtype": "DT_INT32", "tensorShape": {}}}, "dtype": {"type": "DT_INT32"}}}, {"name": "StatefulPartitionedCall/BatchMultiClassNonMaxSuppression_1/MultiClassNonMaxSuppression/Gather_36/GatherV2_4/axis", "op": "Const", "attr": {"dtype": {"type": "DT_INT32"}, "value": {"tensor": {"dtype": "DT_INT32", "tensorShape": {}}}}}, {"name": "StatefulPartitionedCall/BatchMultiClassNonMaxSuppression_1/MultiClassNonMaxSuppression/Gather_37/GatherV2_4/axis", "op": "Const", "attr": {"dtype": {"type": "DT_INT32"}, "value": {"tensor": {"dtype": "DT_INT32", "tensorShape": {}}}}}, {"name": "StatefulPartitionedCall/BatchMultiClassNonMaxSuppression_1/MultiClassNonMaxSuppression/Gather_38/GatherV2_4/axis", "op": "Const", "attr": {"value": {"tensor": {"dtype": "DT_INT32", "tensorShape": {}}}, "dtype": {"type": "DT_INT32"}}}, {"name": "StatefulPartitionedCall/BatchMultiClassNonMaxSuppression_1/MultiClassNonMaxSuppression/Gather_39/GatherV2_4/axis", "op": "Const", "attr": {"dtype": {"type": "DT_INT32"}, "value": {"tensor": {"dtype": "DT_INT32", "tensorShape": {}}}}}, {"name": "StatefulPartitionedCall/BatchMultiClassNonMaxSuppression_1/MultiClassNonMaxSuppression/Gather_40/GatherV2_4/axis", "op": "Const", "attr": {"dtype": {"type": "DT_INT32"}, "value": {"tensor": {"dtype": "DT_INT32", "tensorShape": {}}}}}, {"name": "StatefulPartitionedCall/BatchMultiClassNonMaxSuppression_1/MultiClassNonMaxSuppression/Gather_41/GatherV2_4/axis", "op": "Const", "attr": {"dtype": {"type": "DT_INT32"}, "value": {"tensor": {"dtype": "DT_INT32", "tensorShape": {}}}}}, {"name": "StatefulPartitionedCall/BatchMultiClassNonMaxSuppression_1/MultiClassNonMaxSuppression/Gather_42/GatherV2_4/axis", "op": "Const", "attr": {"dtype": {"type": "DT_INT32"}, "value": {"tensor": {"dtype": "DT_INT32", "tensorShape": {}}}}}, {"name": "StatefulPartitionedCall/BatchMultiClassNonMaxSuppression_1/MultiClassNonMaxSuppression/Gather_43/GatherV2_4/axis", "op": "Const", "attr": {"dtype": {"type": "DT_INT32"}, "value": {"tensor": {"dtype": "DT_INT32", "tensorShape": {}}}}}, {"name": "StatefulPartitionedCall/BatchMultiClassNonMaxSuppression_1/MultiClassNonMaxSuppression/Gather_44/GatherV2_4/axis", "op": "Const", "attr": {"value": {"tensor": {"dtype": "DT_INT32", "tensorShape": {}}}, "dtype": {"type": "DT_INT32"}}}, {"name": "StatefulPartitionedCall/BatchMultiClassNonMaxSuppression_1/MultiClassNonMaxSuppression/Gather_45/GatherV2_4/axis", "op": "Const", "attr": {"dtype": {"type": "DT_INT32"}, "value": {"tensor": {"dtype": "DT_INT32", "tensorShape": {}}}}}, {"name": "StatefulPartitionedCall/BatchMultiClassNonMaxSuppression_1/MultiClassNonMaxSuppression/Gather_46/GatherV2_4/axis", "op": "Const", "attr": {"dtype": {"type": "DT_INT32"}, "value": {"tensor": {"dtype": "DT_INT32", "tensorShape": {}}}}}, {"name": "StatefulPartitionedCall/BatchMultiClassNonMaxSuppression_1/MultiClassNonMaxSuppression/Gather_47/GatherV2_4/axis", "op": "Const", "attr": {"value": {"tensor": {"dtype": "DT_INT32", "tensorShape": {}}}, "dtype": {"type": "DT_INT32"}}}, {"name": "StatefulPartitionedCall/BatchMultiClassNonMaxSuppression_1/MultiClassNonMaxSuppression/Gather_48/GatherV2_4/axis", "op": "Const", "attr": {"value": {"tensor": {"dtype": "DT_INT32", "tensorShape": {}}}, "dtype": {"type": "DT_INT32"}}}, {"name": "StatefulPartitionedCall/BatchMultiClassNonMaxSuppression_1/MultiClassNonMaxSuppression/Gather_49/GatherV2_4/axis", "op": "Const", "attr": {"value": {"tensor": {"dtype": "DT_INT32", "tensorShape": {}}}, "dtype": {"type": "DT_INT32"}}}, {"name": "StatefulPartitionedCall/BatchMultiClassNonMaxSuppression_1/MultiClassNonMaxSuppression/Gather_50/GatherV2_4/axis", "op": "Const", "attr": {"dtype": {"type": "DT_INT32"}, "value": {"tensor": {"dtype": "DT_INT32", "tensorShape": {}}}}}, {"name": "StatefulPartitionedCall/BatchMultiClassNonMaxSuppression_1/MultiClassNonMaxSuppression/Gather_51/GatherV2_4/axis", "op": "Const", "attr": {"dtype": {"type": "DT_INT32"}, "value": {"tensor": {"dtype": "DT_INT32", "tensorShape": {}}}}}, {"name": "StatefulPartitionedCall/BatchMultiClassNonMaxSuppression_1/MultiClassNonMaxSuppression/Gather_52/GatherV2_4/axis", "op": "Const", "attr": {"value": {"tensor": {"dtype": "DT_INT32", "tensorShape": {}}}, "dtype": {"type": "DT_INT32"}}}, {"name": "StatefulPartitionedCall/BatchMultiClassNonMaxSuppression_1/MultiClassNonMaxSuppression/Gather_53/GatherV2_4/axis", "op": "Const", "attr": {"value": {"tensor": {"dtype": "DT_INT32", "tensorShape": {}}}, "dtype": {"type": "DT_INT32"}}}, {"name": "StatefulPartitionedCall/BatchMultiClassNonMaxSuppression_1/MultiClassNonMaxSuppression/Gather_54/GatherV2_4/axis", "op": "Const", "attr": {"value": {"tensor": {"dtype": "DT_INT32", "tensorShape": {}}}, "dtype": {"type": "DT_INT32"}}}, {"name": "StatefulPartitionedCall/BatchMultiClassNonMaxSuppression_1/MultiClassNonMaxSuppression/Gather_55/GatherV2_4/axis", "op": "Const", "attr": {"value": {"tensor": {"dtype": "DT_INT32", "tensorShape": {}}}, "dtype": {"type": "DT_INT32"}}}, {"name": "StatefulPartitionedCall/BatchMultiClassNonMaxSuppression_1/MultiClassNonMaxSuppression/Gather_56/GatherV2_4/axis", "op": "Const", "attr": {"value": {"tensor": {"dtype": "DT_INT32", "tensorShape": {}}}, "dtype": {"type": "DT_INT32"}}}, {"name": "StatefulPartitionedCall/BatchMultiClassNonMaxSuppression_1/MultiClassNonMaxSuppression/Gather_57/GatherV2_4/axis", "op": "Const", "attr": {"dtype": {"type": "DT_INT32"}, "value": {"tensor": {"dtype": "DT_INT32", "tensorShape": {}}}}}, {"name": "StatefulPartitionedCall/BatchMultiClassNonMaxSuppression_1/MultiClassNonMaxSuppression/Gather_58/GatherV2_4/axis", "op": "Const", "attr": {"value": {"tensor": {"dtype": "DT_INT32", "tensorShape": {}}}, "dtype": {"type": "DT_INT32"}}}, {"name": "StatefulPartitionedCall/BatchMultiClassNonMaxSuppression_1/MultiClassNonMaxSuppression/Gather_59/GatherV2_4/axis", "op": "Const", "attr": {"dtype": {"type": "DT_INT32"}, "value": {"tensor": {"dtype": "DT_INT32", "tensorShape": {}}}}}, {"name": "StatefulPartitionedCall/BatchMultiClassNonMaxSuppression_1/MultiClassNonMaxSuppression/Gather_60/GatherV2_4/axis", "op": "Const", "attr": {"value": {"tensor": {"dtype": "DT_INT32", "tensorShape": {}}}, "dtype": {"type": "DT_INT32"}}}, {"name": "StatefulPartitionedCall/BatchMultiClassNonMaxSuppression_1/MultiClassNonMaxSuppression/Gather_61/GatherV2_4/axis", "op": "Const", "attr": {"value": {"tensor": {"dtype": "DT_INT32", "tensorShape": {}}}, "dtype": {"type": "DT_INT32"}}}, {"name": "StatefulPartitionedCall/BatchMultiClassNonMaxSuppression_1/MultiClassNonMaxSuppression/Gather_62/GatherV2_4/axis", "op": "Const", "attr": {"value": {"tensor": {"dtype": "DT_INT32", "tensorShape": {}}}, "dtype": {"type": "DT_INT32"}}}, {"name": "StatefulPartitionedCall/BatchMultiClassNonMaxSuppression_1/MultiClassNonMaxSuppression/Gather_63/GatherV2_4/axis", "op": "Const", "attr": {"dtype": {"type": "DT_INT32"}, "value": {"tensor": {"dtype": "DT_INT32", "tensorShape": {}}}}}, {"name": "StatefulPartitionedCall/BatchMultiClassNonMaxSuppression_1/MultiClassNonMaxSuppression/Gather_64/GatherV2_4/axis", "op": "Const", "attr": {"dtype": {"type": "DT_INT32"}, "value": {"tensor": {"dtype": "DT_INT32", "tensorShape": {}}}}}, {"name": "StatefulPartitionedCall/BatchMultiClassNonMaxSuppression_1/MultiClassNonMaxSuppression/Gather_65/GatherV2_4/axis", "op": "Const", "attr": {"value": {"tensor": {"dtype": "DT_INT32", "tensorShape": {}}}, "dtype": {"type": "DT_INT32"}}}, {"name": "StatefulPartitionedCall/BatchMultiClassNonMaxSuppression_1/MultiClassNonMaxSuppression/Gather_66/GatherV2_4/axis", "op": "Const", "attr": {"dtype": {"type": "DT_INT32"}, "value": {"tensor": {"dtype": "DT_INT32", "tensorShape": {}}}}}, {"name": "StatefulPartitionedCall/BatchMultiClassNonMaxSuppression_1/MultiClassNonMaxSuppression/Gather_67/GatherV2_4/axis", "op": "Const", "attr": {"value": {"tensor": {"dtype": "DT_INT32", "tensorShape": {}}}, "dtype": {"type": "DT_INT32"}}}, {"name": "StatefulPartitionedCall/BatchMultiClassNonMaxSuppression_1/MultiClassNonMaxSuppression/Gather_68/GatherV2_4/axis", "op": "Const", "attr": {"dtype": {"type": "DT_INT32"}, "value": {"tensor": {"dtype": "DT_INT32", "tensorShape": {}}}}}, {"name": "StatefulPartitionedCall/BatchMultiClassNonMaxSuppression_1/MultiClassNonMaxSuppression/Gather_69/GatherV2_4/axis", "op": "Const", "attr": {"dtype": {"type": "DT_INT32"}, "value": {"tensor": {"dtype": "DT_INT32", "tensorShape": {}}}}}, {"name": "StatefulPartitionedCall/BatchMultiClassNonMaxSuppression_1/MultiClassNonMaxSuppression/Gather_70/GatherV2_4/axis", "op": "Const", "attr": {"dtype": {"type": "DT_INT32"}, "value": {"tensor": {"dtype": "DT_INT32", "tensorShape": {}}}}}, {"name": "StatefulPartitionedCall/BatchMultiClassNonMaxSuppression_1/MultiClassNonMaxSuppression/Gather_71/GatherV2_4/axis", "op": "Const", "attr": {"dtype": {"type": "DT_INT32"}, "value": {"tensor": {"dtype": "DT_INT32", "tensorShape": {}}}}}, {"name": "StatefulPartitionedCall/BatchMultiClassNonMaxSuppression_1/MultiClassNonMaxSuppression/Gather_72/GatherV2_4/axis", "op": "Const", "attr": {"dtype": {"type": "DT_INT32"}, "value": {"tensor": {"dtype": "DT_INT32", "tensorShape": {}}}}}, {"name": "StatefulPartitionedCall/BatchMultiClassNonMaxSuppression_1/MultiClassNonMaxSuppression/Gather_73/GatherV2_4/axis", "op": "Const", "attr": {"value": {"tensor": {"dtype": "DT_INT32", "tensorShape": {}}}, "dtype": {"type": "DT_INT32"}}}, {"name": "StatefulPartitionedCall/BatchMultiClassNonMaxSuppression_1/MultiClassNonMaxSuppression/Gather_74/GatherV2_4/axis", "op": "Const", "attr": {"value": {"tensor": {"dtype": "DT_INT32", "tensorShape": {}}}, "dtype": {"type": "DT_INT32"}}}, {"name": "StatefulPartitionedCall/BatchMultiClassNonMaxSuppression_1/MultiClassNonMaxSuppression/Gather_75/GatherV2_4/axis", "op": "Const", "attr": {"value": {"tensor": {"dtype": "DT_INT32", "tensorShape": {}}}, "dtype": {"type": "DT_INT32"}}}, {"name": "StatefulPartitionedCall/BatchMultiClassNonMaxSuppression_1/MultiClassNonMaxSuppression/Gather_76/GatherV2_4/axis", "op": "Const", "attr": {"dtype": {"type": "DT_INT32"}, "value": {"tensor": {"dtype": "DT_INT32", "tensorShape": {}}}}}, {"name": "StatefulPartitionedCall/BatchMultiClassNonMaxSuppression_1/MultiClassNonMaxSuppression/Gather_77/GatherV2_4/axis", "op": "Const", "attr": {"dtype": {"type": "DT_INT32"}, "value": {"tensor": {"dtype": "DT_INT32", "tensorShape": {}}}}}, {"name": "StatefulPartitionedCall/BatchMultiClassNonMaxSuppression_1/MultiClassNonMaxSuppression/Gather_78/GatherV2_4/axis", "op": "Const", "attr": {"dtype": {"type": "DT_INT32"}, "value": {"tensor": {"dtype": "DT_INT32", "tensorShape": {}}}}}, {"name": "StatefulPartitionedCall/BatchMultiClassNonMaxSuppression_1/MultiClassNonMaxSuppression/Gather_79/GatherV2_4/axis", "op": "Const", "attr": {"dtype": {"type": "DT_INT32"}, "value": {"tensor": {"dtype": "DT_INT32", "tensorShape": {}}}}}, {"name": "StatefulPartitionedCall/BatchMultiClassNonMaxSuppression_1/MultiClassNonMaxSuppression/Gather_80/GatherV2_4/axis", "op": "Const", "attr": {"value": {"tensor": {"dtype": "DT_INT32", "tensorShape": {}}}, "dtype": {"type": "DT_INT32"}}}, {"name": "StatefulPartitionedCall/BatchMultiClassNonMaxSuppression_1/MultiClassNonMaxSuppression/Gather_81/GatherV2_4/axis", "op": "Const", "attr": {"value": {"tensor": {"dtype": "DT_INT32", "tensorShape": {}}}, "dtype": {"type": "DT_INT32"}}}, {"name": "StatefulPartitionedCall/BatchMultiClassNonMaxSuppression_1/MultiClassNonMaxSuppression/Gather_82/GatherV2_4/axis", "op": "Const", "attr": {"value": {"tensor": {"dtype": "DT_INT32", "tensorShape": {}}}, "dtype": {"type": "DT_INT32"}}}, {"name": "StatefulPartitionedCall/BatchMultiClassNonMaxSuppression_1/MultiClassNonMaxSuppression/Gather_83/GatherV2_4/axis", "op": "Const", "attr": {"dtype": {"type": "DT_INT32"}, "value": {"tensor": {"dtype": "DT_INT32", "tensorShape": {}}}}}, {"name": "StatefulPartitionedCall/BatchMultiClassNonMaxSuppression_1/MultiClassNonMaxSuppression/Gather_84/GatherV2_4/axis", "op": "Const", "attr": {"value": {"tensor": {"dtype": "DT_INT32", "tensorShape": {}}}, "dtype": {"type": "DT_INT32"}}}, {"name": "StatefulPartitionedCall/BatchMultiClassNonMaxSuppression_1/MultiClassNonMaxSuppression/Gather_85/GatherV2_4/axis", "op": "Const", "attr": {"value": {"tensor": {"dtype": "DT_INT32", "tensorShape": {}}}, "dtype": {"type": "DT_INT32"}}}, {"name": "StatefulPartitionedCall/BatchMultiClassNonMaxSuppression_1/MultiClassNonMaxSuppression/Gather_86/GatherV2_4/axis", "op": "Const", "attr": {"dtype": {"type": "DT_INT32"}, "value": {"tensor": {"dtype": "DT_INT32", "tensorShape": {}}}}}, {"name": "StatefulPartitionedCall/BatchMultiClassNonMaxSuppression_1/MultiClassNonMaxSuppression/Gather_87/GatherV2_4/axis", "op": "Const", "attr": {"dtype": {"type": "DT_INT32"}, "value": {"tensor": {"dtype": "DT_INT32", "tensorShape": {}}}}}, {"name": "StatefulPartitionedCall/BatchMultiClassNonMaxSuppression_1/MultiClassNonMaxSuppression/Gather_88/GatherV2_4/axis", "op": "Const", "attr": {"value": {"tensor": {"dtype": "DT_INT32", "tensorShape": {}}}, "dtype": {"type": "DT_INT32"}}}, {"name": "StatefulPartitionedCall/BatchMultiClassNonMaxSuppression_1/Slice_4/begin", "op": "Const", "attr": {"value": {"tensor": {"dtype": "DT_INT32", "tensorShape": {"dim": [{"size": "2"}]}}}, "dtype": {"type": "DT_INT32"}}}, {"name": "StatefulPartitionedCall/BatchMultiClassNonMaxSuppression_1/stack_5/1", "op": "Const", "attr": {"value": {"tensor": {"dtype": "DT_INT32", "tensorShape": {}}}, "dtype": {"type": "DT_INT32"}}}, {"name": "StatefulPartitionedCall/BatchMultiClassNonMaxSuppression_1/Reshape_4/shape", "op": "Const", "attr": {"dtype": {"type": "DT_INT32"}, "value": {"tensor": {"dtype": "DT_INT32", "tensorShape": {"dim": [{"size": "2"}]}}}}}, {"name": "StatefulPartitionedCall/BatchMultiClassNonMaxSuppression_1/MultiClassNonMaxSuppression/Gather_89/GatherV2_4/axis", "op": "Const", "attr": {"value": {"tensor": {"dtype": "DT_INT32", "tensorShape": {}}}, "dtype": {"type": "DT_INT32"}}}, {"name": "StatefulPartitionedCall/BatchMultiClassNonMaxSuppression_1/MultiClassNonMaxSuppression/Concatenate/concat_4/axis", "op": "Const", "attr": {"dtype": {"type": "DT_INT32"}, "value": {"tensor": {"dtype": "DT_INT32", "tensorShape": {}}}}}, {"name": "StatefulPartitionedCall/BatchMultiClassNonMaxSuppression_1/MultiClassNonMaxSuppression/SortByField/Gather/GatherV2_4/axis", "op": "Const", "attr": {"value": {"tensor": {"dtype": "DT_INT32", "tensorShape": {}}}, "dtype": {"type": "DT_INT32"}}}, {"name": "StatefulPartitionedCall/BatchMultiClassNonMaxSuppression_1/MultiClassNonMaxSuppression/ClipToWindow/Gather/GatherV2_4/axis", "op": "Const", "attr": {"value": {"tensor": {"dtype": "DT_INT32", "tensorShape": {}}}, "dtype": {"type": "DT_INT32"}}}, {"name": "StatefulPartitionedCall/BatchMultiClassNonMaxSuppression_1/MultiClassNonMaxSuppression/SortByField_1/Gather/GatherV2_4/axis", "op": "Const", "attr": {"value": {"tensor": {"dtype": "DT_INT32", "tensorShape": {}}}, "dtype": {"type": "DT_INT32"}}}, {"name": "StatefulPartitionedCall/BatchMultiClassNonMaxSuppression_1/MultiClassNonMaxSuppression/Gather_90/GatherV2_4/axis", "op": "Const", "attr": {"dtype": {"type": "DT_INT32"}, "value": {"tensor": {"dtype": "DT_INT32", "tensorShape": {}}}}}, {"name": "StatefulPartitionedCall/BatchMultiClassNonMaxSuppression_1/MultiClassNonMaxSuppression/Gather_91/GatherV2_4/axis", "op": "Const", "attr": {"value": {"tensor": {"dtype": "DT_INT32", "tensorShape": {}}}, "dtype": {"type": "DT_INT32"}}}, {"name": "StatefulPartitionedCall/BatchMultiClassNonMaxSuppression_1/PadOrClipBoxList/strided_slice_15/stack", "op": "Const", "attr": {"dtype": {"type": "DT_INT32"}, "value": {"tensor": {"dtype": "DT_INT32", "tensorShape": {"dim": [{"size": "1"}]}}}}}, {"name": "StatefulPartitionedCall/BatchMultiClassNonMaxSuppression_1/PadOrClipBoxList/strided_slice_15/stack_1", "op": "Const", "attr": {"dtype": {"type": "DT_INT32"}, "value": {"tensor": {"dtype": "DT_INT32", "tensorShape": {"dim": [{"size": "1"}]}}}}}, {"name": "StatefulPartitionedCall/BatchMultiClassNonMaxSuppression_1/PadOrClipBoxList/strided_slice_15/stack_2", "op": "Const", "attr": {"dtype": {"type": "DT_INT32"}, "value": {"tensor": {"dtype": "DT_INT32", "tensorShape": {"dim": [{"size": "1"}]}}}}}, {"name": "StatefulPartitionedCall/BatchMultiClassNonMaxSuppression_1/PadOrClipBoxList/sub_15/y", "op": "Const", "attr": {"value": {"tensor": {"dtype": "DT_INT32", "tensorShape": {}}}, "dtype": {"type": "DT_INT32"}}}, {"name": "StatefulPartitionedCall/BatchMultiClassNonMaxSuppression_1/PadOrClipBoxList/Greater_8/y", "op": "Const", "attr": {"value": {"tensor": {"dtype": "DT_INT32", "tensorShape": {}}}, "dtype": {"type": "DT_INT32"}}}, {"name": "StatefulPartitionedCall/BatchMultiClassNonMaxSuppression_1/PadOrClipBoxList/Select_8/t", "op": "Const", "attr": {"value": {"tensor": {"dtype": "DT_INT32", "tensorShape": {}}}, "dtype": {"type": "DT_INT32"}}}, {"name": "StatefulPartitionedCall/BatchMultiClassNonMaxSuppression_1/PadOrClipBoxList/Select_8/e", "op": "Const", "attr": {"value": {"tensor": {"dtype": "DT_INT32", "tensorShape": {}}}, "dtype": {"type": "DT_INT32"}}}, {"name": "StatefulPartitionedCall/BatchMultiClassNonMaxSuppression_1/PadOrClipBoxList/strided_slice_17/stack", "op": "Const", "attr": {"value": {"tensor": {"dtype": "DT_INT32", "tensorShape": {"dim": [{"size": "1"}]}}}, "dtype": {"type": "DT_INT32"}}}, {"name": "StatefulPartitionedCall/BatchMultiClassNonMaxSuppression_1/PadOrClipBoxList/strided_slice_17/stack_1", "op": "Const", "attr": {"value": {"tensor": {"dtype": "DT_INT32", "tensorShape": {"dim": [{"size": "1"}]}}}, "dtype": {"type": "DT_INT32"}}}, {"name": "StatefulPartitionedCall/BatchMultiClassNonMaxSuppression_1/PadOrClipBoxList/strided_slice_17/stack_2", "op": "Const", "attr": {"dtype": {"type": "DT_INT32"}, "value": {"tensor": {"dtype": "DT_INT32", "tensorShape": {"dim": [{"size": "1"}]}}}}}, {"name": "StatefulPartitionedCall/BatchMultiClassNonMaxSuppression_1/PadOrClipBoxList/zeros_3", "op": "Const", "attr": {"value": {"tensor": {"dtype": "DT_INT32", "tensorShape": {"dim": [{"size": "1"}]}}}, "dtype": {"type": "DT_INT32"}}}, {"name": "StatefulPartitionedCall/BatchMultiClassNonMaxSuppression_1/PadOrClipBoxList/sub_5/x", "op": "Const", "attr": {"value": {"tensor": {"dtype": "DT_INT32", "tensorShape": {}}}, "dtype": {"type": "DT_INT32"}}}, {"name": "StatefulPartitionedCall/BatchMultiClassNonMaxSuppression_1/PadOrClipBoxList/zeros_2", "op": "Const", "attr": {"value": {"tensor": {"dtype": "DT_INT32", "tensorShape": {"dim": [{"size": "1"}]}}}, "dtype": {"type": "DT_INT32"}}}, {"name": "StatefulPartitionedCall/BatchMultiClassNonMaxSuppression_1/MultiClassNonMaxSuppression/SortByField_1/Gather/GatherV2_1/axis", "op": "Const", "attr": {"dtype": {"type": "DT_INT32"}, "value": {"tensor": {"dtype": "DT_INT32", "tensorShape": {}}}}}, {"name": "StatefulPartitionedCall/BatchMultiClassNonMaxSuppression_1/MultiClassNonMaxSuppression/range_90/start", "op": "Const", "attr": {"dtype": {"type": "DT_INT32"}, "value": {"tensor": {"dtype": "DT_INT32", "tensorShape": {}}}}}, {"name": "StatefulPartitionedCall/BatchMultiClassNonMaxSuppression_1/MultiClassNonMaxSuppression/range_90/delta", "op": "Const", "attr": {"value": {"tensor": {"dtype": "DT_INT32", "tensorShape": {}}}, "dtype": {"type": "DT_INT32"}}}, {"name": "StatefulPartitionedCall/BatchMultiClassNonMaxSuppression_1/MultiClassNonMaxSuppression/Gather_90/GatherV2_1/axis", "op": "Const", "attr": {"value": {"tensor": {"dtype": "DT_INT32", "tensorShape": {}}}, "dtype": {"type": "DT_INT32"}}}, {"name": "StatefulPartitionedCall/BatchMultiClassNonMaxSuppression_1/MultiClassNonMaxSuppression/range_91/start", "op": "Const", "attr": {"dtype": {"type": "DT_INT32"}, "value": {"tensor": {"dtype": "DT_INT32", "tensorShape": {}}}}}, {"name": "StatefulPartitionedCall/BatchMultiClassNonMaxSuppression_1/MultiClassNonMaxSuppression/GreaterEqual/y", "op": "Const", "attr": {"value": {"tensor": {"dtype": "DT_FLOAT", "tensorShape": {}}}, "dtype": {"type": "DT_FLOAT"}}}, {"name": "StatefulPartitionedCall/BatchMultiClassNonMaxSuppression_1/MultiClassNonMaxSuppression/Const_1", "op": "Const", "attr": {"value": {"tensor": {"dtype": "DT_INT32", "tensorShape": {"dim": [{"size": "1"}]}}}, "dtype": {"type": "DT_INT32"}}}, {"name": "StatefulPartitionedCall/BatchMultiClassNonMaxSuppression_1/MultiClassNonMaxSuppression/Minimum_90/x", "op": "Const", "attr": {"dtype": {"type": "DT_INT32"}, "value": {"tensor": {"dtype": "DT_INT32", "tensorShape": {}}}}}, {"name": "StatefulPartitionedCall/BatchMultiClassNonMaxSuppression_1/MultiClassNonMaxSuppression/ChangeCoordinateFrame/truediv", "op": "Const", "attr": {"value": {"tensor": {"dtype": "DT_FLOAT", "tensorShape": {}}}, "dtype": {"type": "DT_FLOAT"}}}, {"name": "StatefulPartitionedCall/BatchMultiClassNonMaxSuppression_1/MultiClassNonMaxSuppression/ChangeCoordinateFrame/truediv_1", "op": "Const", "attr": {"dtype": {"type": "DT_FLOAT"}, "value": {"tensor": {"dtype": "DT_FLOAT", "tensorShape": {}}}}}, {"name": "StatefulPartitionedCall/BatchMultiClassNonMaxSuppression_1/MultiClassNonMaxSuppression/ChangeCoordinateFrame/Scale/split/split_dim", "op": "Const", "attr": {"dtype": {"type": "DT_INT32"}, "value": {"tensor": {"dtype": "DT_INT32", "tensorShape": {}}}}}, {"name": "StatefulPartitionedCall/BatchMultiClassNonMaxSuppression_1/MultiClassNonMaxSuppression/SortByField_1/Gather/GatherV2_6/axis", "op": "Const", "attr": {"dtype": {"type": "DT_INT32"}, "value": {"tensor": {"dtype": "DT_INT32", "tensorShape": {}}}}}, {"name": "StatefulPartitionedCall/BatchMultiClassNonMaxSuppression_1/MultiClassNonMaxSuppression/ChangeCoordinateFrame/Scale/concat/axis", "op": "Const", "attr": {"dtype": {"type": "DT_INT32"}, "value": {"tensor": {"dtype": "DT_INT32", "tensorShape": {}}}}}, {"name": "StatefulPartitionedCall/BatchMultiClassNonMaxSuppression_1/MultiClassNonMaxSuppression/strided_slice_182/stack", "op": "Const", "attr": {"value": {"tensor": {"dtype": "DT_INT32", "tensorShape": {"dim": [{"size": "1"}]}}}, "dtype": {"type": "DT_INT32"}}}, {"name": "StatefulPartitionedCall/BatchMultiClassNonMaxSuppression_1/MultiClassNonMaxSuppression/strided_slice_182/stack_1", "op": "Const", "attr": {"dtype": {"type": "DT_INT32"}, "value": {"tensor": {"dtype": "DT_INT32", "tensorShape": {"dim": [{"size": "1"}]}}}}}, {"name": "StatefulPartitionedCall/BatchMultiClassNonMaxSuppression_1/MultiClassNonMaxSuppression/strided_slice_182/stack_2", "op": "Const", "attr": {"dtype": {"type": "DT_INT32"}, "value": {"tensor": {"dtype": "DT_INT32", "tensorShape": {"dim": [{"size": "1"}]}}}}}, {"name": "StatefulPartitionedCall/BatchMultiClassNonMaxSuppression_1/MultiClassNonMaxSuppression/range_91/delta", "op": "Const", "attr": {"value": {"tensor": {"dtype": "DT_INT32", "tensorShape": {}}}, "dtype": {"type": "DT_INT32"}}}, {"name": "StatefulPartitionedCall/BatchMultiClassNonMaxSuppression_1/MultiClassNonMaxSuppression/Gather_91/GatherV2_1/axis", "op": "Const", "attr": {"value": {"tensor": {"dtype": "DT_INT32", "tensorShape": {}}}, "dtype": {"type": "DT_INT32"}}}, {"name": "StatefulPartitionedCall/BatchMultiClassNonMaxSuppression_1/PadOrClipBoxList/strided_slice_4/stack", "op": "Const", "attr": {"dtype": {"type": "DT_INT32"}, "value": {"tensor": {"dtype": "DT_INT32", "tensorShape": {"dim": [{"size": "1"}]}}}}}, {"name": "StatefulPartitionedCall/BatchMultiClassNonMaxSuppression_1/PadOrClipBoxList/strided_slice_4/stack_1", "op": "Const", "attr": {"dtype": {"type": "DT_INT32"}, "value": {"tensor": {"dtype": "DT_INT32", "tensorShape": {"dim": [{"size": "1"}]}}}}}, {"name": "StatefulPartitionedCall/BatchMultiClassNonMaxSuppression_1/PadOrClipBoxList/strided_slice_4/stack_2", "op": "Const", "attr": {"dtype": {"type": "DT_INT32"}, "value": {"tensor": {"dtype": "DT_INT32", "tensorShape": {"dim": [{"size": "1"}]}}}}}, {"name": "StatefulPartitionedCall/BatchMultiClassNonMaxSuppression_1/PadOrClipBoxList/sub_4/y", "op": "Const", "attr": {"value": {"tensor": {"dtype": "DT_INT32", "tensorShape": {}}}, "dtype": {"type": "DT_INT32"}}}, {"name": "StatefulPartitionedCall/BatchMultiClassNonMaxSuppression_1/PadOrClipBoxList/Greater_2/y", "op": "Const", "attr": {"dtype": {"type": "DT_INT32"}, "value": {"tensor": {"dtype": "DT_INT32", "tensorShape": {}}}}}, {"name": "StatefulPartitionedCall/BatchMultiClassNonMaxSuppression_1/PadOrClipBoxList/Select_2/t", "op": "Const", "attr": {"dtype": {"type": "DT_INT32"}, "value": {"tensor": {"dtype": "DT_INT32", "tensorShape": {}}}}}, {"name": "StatefulPartitionedCall/BatchMultiClassNonMaxSuppression_1/PadOrClipBoxList/Select_2/e", "op": "Const", "attr": {"value": {"tensor": {"dtype": "DT_INT32", "tensorShape": {}}}, "dtype": {"type": "DT_INT32"}}}, {"name": "StatefulPartitionedCall/BatchMultiClassNonMaxSuppression_1/PadOrClipBoxList/strided_slice_5/stack", "op": "Const", "attr": {"dtype": {"type": "DT_INT32"}, "value": {"tensor": {"dtype": "DT_INT32", "tensorShape": {"dim": [{"size": "1"}]}}}}}, {"name": "StatefulPartitionedCall/BatchMultiClassNonMaxSuppression_1/PadOrClipBoxList/strided_slice_5/stack_1", "op": "Const", "attr": {"value": {"tensor": {"dtype": "DT_INT32", "tensorShape": {"dim": [{"size": "1"}]}}}, "dtype": {"type": "DT_INT32"}}}, {"name": "StatefulPartitionedCall/BatchMultiClassNonMaxSuppression_1/PadOrClipBoxList/strided_slice_5/stack_2", "op": "Const", "attr": {"value": {"tensor": {"dtype": "DT_INT32", "tensorShape": {"dim": [{"size": "1"}]}}}, "dtype": {"type": "DT_INT32"}}}, {"name": "StatefulPartitionedCall/BatchMultiClassNonMaxSuppression_1/MultiClassNonMaxSuppression/SortByField_1/strided_slice/stack", "op": "Const", "attr": {"dtype": {"type": "DT_INT32"}, "value": {"tensor": {"dtype": "DT_INT32", "tensorShape": {"dim": [{"size": "1"}]}}}}}, {"name": "StatefulPartitionedCall/BatchMultiClassNonMaxSuppression_1/MultiClassNonMaxSuppression/SortByField_1/strided_slice/stack_1", "op": "Const", "attr": {"dtype": {"type": "DT_INT32"}, "value": {"tensor": {"dtype": "DT_INT32", "tensorShape": {"dim": [{"size": "1"}]}}}}}, {"name": "StatefulPartitionedCall/BatchMultiClassNonMaxSuppression_1/MultiClassNonMaxSuppression/SortByField_1/strided_slice/stack_2", "op": "Const", "attr": {"dtype": {"type": "DT_INT32"}, "value": {"tensor": {"dtype": "DT_INT32", "tensorShape": {"dim": [{"size": "1"}]}}}}}, {"name": "StatefulPartitionedCall/BatchMultiClassNonMaxSuppression_1/MultiClassNonMaxSuppression/Area/split/split_dim", "op": "Const", "attr": {"value": {"tensor": {"dtype": "DT_INT32", "tensorShape": {}}}, "dtype": {"type": "DT_INT32"}}}, {"name": "StatefulPartitionedCall/BatchMultiClassNonMaxSuppression_1/MultiClassNonMaxSuppression/SortByField/Gather/GatherV2_1/axis", "op": "Const", "attr": {"dtype": {"type": "DT_INT32"}, "value": {"tensor": {"dtype": "DT_INT32", "tensorShape": {}}}}}, {"name": "StatefulPartitionedCall/BatchMultiClassNonMaxSuppression_1/MultiClassNonMaxSuppression/ClipToWindow/Gather/GatherV2_1/axis", "op": "Const", "attr": {"dtype": {"type": "DT_INT32"}, "value": {"tensor": {"dtype": "DT_INT32", "tensorShape": {}}}}}, {"name": "StatefulPartitionedCall/BatchMultiClassNonMaxSuppression_1/MultiClassNonMaxSuppression/mul_90/x", "op": "Const", "attr": {"dtype": {"type": "DT_FLOAT"}, "value": {"tensor": {"dtype": "DT_FLOAT", "tensorShape": {}}}}}, {"name": "StatefulPartitionedCall/BatchMultiClassNonMaxSuppression_1/MultiClassNonMaxSuppression/ClipToWindow/Area/split/split_dim", "op": "Const", "attr": {"value": {"tensor": {"dtype": "DT_INT32", "tensorShape": {}}}, "dtype": {"type": "DT_INT32"}}}, {"name": "ConstantFolding/StatefulPartitionedCall/BatchMultiClassNonMaxSuppression_1/MultiClassNonMaxSuppression/ClipToWindow/unstack-folded-2", "op": "Const", "attr": {"value": {"tensor": {"dtype": "DT_FLOAT", "tensorShape": {}}}, "dtype": {"type": "DT_FLOAT"}}}, {"name": "ConstantFolding/StatefulPartitionedCall/BatchMultiClassNonMaxSuppression_1/MultiClassNonMaxSuppression/ClipToWindow/unstack-folded-0", "op": "Const", "attr": {"value": {"tensor": {"dtype": "DT_FLOAT", "tensorShape": {}}}, "dtype": {"type": "DT_FLOAT"}}}, {"name": "StatefulPartitionedCall/BatchMultiClassNonMaxSuppression_1/MultiClassNonMaxSuppression/ClipToWindow/split/split_dim", "op": "Const", "attr": {"value": {"tensor": {"dtype": "DT_INT32", "tensorShape": {}}}, "dtype": {"type": "DT_INT32"}}}, {"name": "StatefulPartitionedCall/BatchMultiClassNonMaxSuppression_1/MultiClassNonMaxSuppression/range/start", "op": "Const", "attr": {"value": {"tensor": {"dtype": "DT_INT32", "tensorShape": {}}}, "dtype": {"type": "DT_INT32"}}}, {"name": "StatefulPartitionedCall/BatchMultiClassNonMaxSuppression_1/MultiClassNonMaxSuppression/range/delta", "op": "Const", "attr": {"dtype": {"type": "DT_INT32"}, "value": {"tensor": {"dtype": "DT_INT32", "tensorShape": {}}}}}, {"name": "StatefulPartitionedCall/BatchMultiClassNonMaxSuppression_1/MultiClassNonMaxSuppression/zeros_1/Reshape/shape", "op": "Const", "attr": {"value": {"tensor": {"dtype": "DT_INT32", "tensorShape": {"dim": [{"size": "1"}]}}}, "dtype": {"type": "DT_INT32"}}}, {"name": "StatefulPartitionedCall/BatchMultiClassNonMaxSuppression_1/MultiClassNonMaxSuppression/zeros_1/Const", "op": "Const", "attr": {"dtype": {"type": "DT_FLOAT"}, "value": {"tensor": {"dtype": "DT_FLOAT", "tensorShape": {}}}}}, {"name": "StatefulPartitionedCall/BatchMultiClassNonMaxSuppression_1/MultiClassNonMaxSuppression/concat_1/axis", "op": "Const", "attr": {"value": {"tensor": {"dtype": "DT_INT32", "tensorShape": {}}}, "dtype": {"type": "DT_INT32"}}}, {"name": "StatefulPartitionedCall/BatchMultiClassNonMaxSuppression_1/MultiClassNonMaxSuppression/mul/x", "op": "Const", "attr": {"dtype": {"type": "DT_FLOAT"}, "value": {"tensor": {"dtype": "DT_FLOAT", "tensorShape": {}}}}}, {"name": "StatefulPartitionedCall/BatchMultiClassNonMaxSuppression_1/MultiClassNonMaxSuppression/ones/Reshape/shape", "op": "Const", "attr": {"value": {"tensor": {"dtype": "DT_INT32", "tensorShape": {"dim": [{"size": "1"}]}}}, "dtype": {"type": "DT_INT32"}}}, {"name": "StatefulPartitionedCall/BatchMultiClassNonMaxSuppression_1/MultiClassNonMaxSuppression/ones/Const", "op": "Const", "attr": {"dtype": {"type": "DT_FLOAT"}, "value": {"tensor": {"dtype": "DT_FLOAT", "tensorShape": {}}}}}, {"name": "StatefulPartitionedCall/BatchMultiClassNonMaxSuppression_1/MultiClassNonMaxSuppression/range_1/start", "op": "Const", "attr": {"dtype": {"type": "DT_INT32"}, "value": {"tensor": {"dtype": "DT_INT32", "tensorShape": {}}}}}, {"name": "StatefulPartitionedCall/BatchMultiClassNonMaxSuppression_1/MultiClassNonMaxSuppression/range_1/delta", "op": "Const", "attr": {"dtype": {"type": "DT_INT32"}, "value": {"tensor": {"dtype": "DT_INT32", "tensorShape": {}}}}}, {"name": "StatefulPartitionedCall/BatchMultiClassNonMaxSuppression_1/MultiClassNonMaxSuppression/zeros_3/Reshape/shape", "op": "Const", "attr": {"value": {"tensor": {"dtype": "DT_INT32", "tensorShape": {"dim": [{"size": "1"}]}}}, "dtype": {"type": "DT_INT32"}}}, {"name": "StatefulPartitionedCall/BatchMultiClassNonMaxSuppression_1/MultiClassNonMaxSuppression/zeros_3/Const", "op": "Const", "attr": {"dtype": {"type": "DT_FLOAT"}, "value": {"tensor": {"dtype": "DT_FLOAT", "tensorShape": {}}}}}, {"name": "StatefulPartitionedCall/BatchMultiClassNonMaxSuppression_1/MultiClassNonMaxSuppression/concat_3/axis", "op": "Const", "attr": {"dtype": {"type": "DT_INT32"}, "value": {"tensor": {"dtype": "DT_INT32", "tensorShape": {}}}}}, {"name": "StatefulPartitionedCall/BatchMultiClassNonMaxSuppression_1/MultiClassNonMaxSuppression/mul_1/x", "op": "Const", "attr": {"value": {"tensor": {"dtype": "DT_FLOAT", "tensorShape": {}}}, "dtype": {"type": "DT_FLOAT"}}}, {"name": "StatefulPartitionedCall/BatchMultiClassNonMaxSuppression_1/MultiClassNonMaxSuppression/ones_1/Reshape/shape", "op": "Const", "attr": {"value": {"tensor": {"dtype": "DT_INT32", "tensorShape": {"dim": [{"size": "1"}]}}}, "dtype": {"type": "DT_INT32"}}}, {"name": "StatefulPartitionedCall/BatchMultiClassNonMaxSuppression_1/MultiClassNonMaxSuppression/ones_1/Const", "op": "Const", "attr": {"dtype": {"type": "DT_FLOAT"}, "value": {"tensor": {"dtype": "DT_FLOAT", "tensorShape": {}}}}}, {"name": "StatefulPartitionedCall/BatchMultiClassNonMaxSuppression_1/MultiClassNonMaxSuppression/range_2/start", "op": "Const", "attr": {"value": {"tensor": {"dtype": "DT_INT32", "tensorShape": {}}}, "dtype": {"type": "DT_INT32"}}}, {"name": "StatefulPartitionedCall/BatchMultiClassNonMaxSuppression_1/MultiClassNonMaxSuppression/range_2/delta", "op": "Const", "attr": {"value": {"tensor": {"dtype": "DT_INT32", "tensorShape": {}}}, "dtype": {"type": "DT_INT32"}}}, {"name": "StatefulPartitionedCall/BatchMultiClassNonMaxSuppression_1/MultiClassNonMaxSuppression/zeros_5/Reshape/shape", "op": "Const", "attr": {"dtype": {"type": "DT_INT32"}, "value": {"tensor": {"dtype": "DT_INT32", "tensorShape": {"dim": [{"size": "1"}]}}}}}, {"name": "StatefulPartitionedCall/BatchMultiClassNonMaxSuppression_1/MultiClassNonMaxSuppression/zeros_5/Const", "op": "Const", "attr": {"dtype": {"type": "DT_FLOAT"}, "value": {"tensor": {"dtype": "DT_FLOAT", "tensorShape": {}}}}}, {"name": "StatefulPartitionedCall/BatchMultiClassNonMaxSuppression_1/MultiClassNonMaxSuppression/concat_5/axis", "op": "Const", "attr": {"dtype": {"type": "DT_INT32"}, "value": {"tensor": {"dtype": "DT_INT32", "tensorShape": {}}}}}, {"name": "StatefulPartitionedCall/BatchMultiClassNonMaxSuppression_1/MultiClassNonMaxSuppression/mul_2/x", "op": "Const", "attr": {"dtype": {"type": "DT_FLOAT"}, "value": {"tensor": {"dtype": "DT_FLOAT", "tensorShape": {}}}}}, {"name": "StatefulPartitionedCall/BatchMultiClassNonMaxSuppression_1/MultiClassNonMaxSuppression/ones_2/Reshape/shape", "op": "Const", "attr": {"dtype": {"type": "DT_INT32"}, "value": {"tensor": {"dtype": "DT_INT32", "tensorShape": {"dim": [{"size": "1"}]}}}}}, {"name": "StatefulPartitionedCall/BatchMultiClassNonMaxSuppression_1/MultiClassNonMaxSuppression/ones_2/Const", "op": "Const", "attr": {"value": {"tensor": {"dtype": "DT_FLOAT", "tensorShape": {}}}, "dtype": {"type": "DT_FLOAT"}}}, {"name": "StatefulPartitionedCall/BatchMultiClassNonMaxSuppression_1/MultiClassNonMaxSuppression/range_3/start", "op": "Const", "attr": {"dtype": {"type": "DT_INT32"}, "value": {"tensor": {"dtype": "DT_INT32", "tensorShape": {}}}}}, {"name": "StatefulPartitionedCall/BatchMultiClassNonMaxSuppression_1/MultiClassNonMaxSuppression/range_3/delta", "op": "Const", "attr": {"value": {"tensor": {"dtype": "DT_INT32", "tensorShape": {}}}, "dtype": {"type": "DT_INT32"}}}, {"name": "StatefulPartitionedCall/BatchMultiClassNonMaxSuppression_1/MultiClassNonMaxSuppression/zeros_7/Reshape/shape", "op": "Const", "attr": {"value": {"tensor": {"dtype": "DT_INT32", "tensorShape": {"dim": [{"size": "1"}]}}}, "dtype": {"type": "DT_INT32"}}}, {"name": "StatefulPartitionedCall/BatchMultiClassNonMaxSuppression_1/MultiClassNonMaxSuppression/zeros_7/Const", "op": "Const", "attr": {"value": {"tensor": {"dtype": "DT_FLOAT", "tensorShape": {}}}, "dtype": {"type": "DT_FLOAT"}}}, {"name": "StatefulPartitionedCall/BatchMultiClassNonMaxSuppression_1/MultiClassNonMaxSuppression/concat_7/axis", "op": "Const", "attr": {"dtype": {"type": "DT_INT32"}, "value": {"tensor": {"dtype": "DT_INT32", "tensorShape": {}}}}}, {"name": "StatefulPartitionedCall/BatchMultiClassNonMaxSuppression_1/MultiClassNonMaxSuppression/mul_3/x", "op": "Const", "attr": {"value": {"tensor": {"dtype": "DT_FLOAT", "tensorShape": {}}}, "dtype": {"type": "DT_FLOAT"}}}, {"name": "StatefulPartitionedCall/BatchMultiClassNonMaxSuppression_1/MultiClassNonMaxSuppression/ones_3/Reshape/shape", "op": "Const", "attr": {"value": {"tensor": {"dtype": "DT_INT32", "tensorShape": {"dim": [{"size": "1"}]}}}, "dtype": {"type": "DT_INT32"}}}, {"name": "StatefulPartitionedCall/BatchMultiClassNonMaxSuppression_1/MultiClassNonMaxSuppression/ones_3/Const", "op": "Const", "attr": {"dtype": {"type": "DT_FLOAT"}, "value": {"tensor": {"dtype": "DT_FLOAT", "tensorShape": {}}}}}, {"name": "StatefulPartitionedCall/BatchMultiClassNonMaxSuppression_1/MultiClassNonMaxSuppression/range_4/start", "op": "Const", "attr": {"dtype": {"type": "DT_INT32"}, "value": {"tensor": {"dtype": "DT_INT32", "tensorShape": {}}}}}, {"name": "StatefulPartitionedCall/BatchMultiClassNonMaxSuppression_1/MultiClassNonMaxSuppression/range_4/delta", "op": "Const", "attr": {"value": {"tensor": {"dtype": "DT_INT32", "tensorShape": {}}}, "dtype": {"type": "DT_INT32"}}}, {"name": "StatefulPartitionedCall/BatchMultiClassNonMaxSuppression_1/MultiClassNonMaxSuppression/zeros_9/Reshape/shape", "op": "Const", "attr": {"value": {"tensor": {"dtype": "DT_INT32", "tensorShape": {"dim": [{"size": "1"}]}}}, "dtype": {"type": "DT_INT32"}}}, {"name": "StatefulPartitionedCall/BatchMultiClassNonMaxSuppression_1/MultiClassNonMaxSuppression/zeros_9/Const", "op": "Const", "attr": {"dtype": {"type": "DT_FLOAT"}, "value": {"tensor": {"dtype": "DT_FLOAT", "tensorShape": {}}}}}, {"name": "StatefulPartitionedCall/BatchMultiClassNonMaxSuppression_1/MultiClassNonMaxSuppression/concat_9/axis", "op": "Const", "attr": {"value": {"tensor": {"dtype": "DT_INT32", "tensorShape": {}}}, "dtype": {"type": "DT_INT32"}}}, {"name": "StatefulPartitionedCall/BatchMultiClassNonMaxSuppression_1/MultiClassNonMaxSuppression/mul_4/x", "op": "Const", "attr": {"value": {"tensor": {"dtype": "DT_FLOAT", "tensorShape": {}}}, "dtype": {"type": "DT_FLOAT"}}}, {"name": "StatefulPartitionedCall/BatchMultiClassNonMaxSuppression_1/MultiClassNonMaxSuppression/ones_4/Reshape/shape", "op": "Const", "attr": {"dtype": {"type": "DT_INT32"}, "value": {"tensor": {"dtype": "DT_INT32", "tensorShape": {"dim": [{"size": "1"}]}}}}}, {"name": "StatefulPartitionedCall/BatchMultiClassNonMaxSuppression_1/MultiClassNonMaxSuppression/ones_4/Const", "op": "Const", "attr": {"dtype": {"type": "DT_FLOAT"}, "value": {"tensor": {"dtype": "DT_FLOAT", "tensorShape": {}}}}}, {"name": "StatefulPartitionedCall/BatchMultiClassNonMaxSuppression_1/MultiClassNonMaxSuppression/range_5/start", "op": "Const", "attr": {"value": {"tensor": {"dtype": "DT_INT32", "tensorShape": {}}}, "dtype": {"type": "DT_INT32"}}}, {"name": "StatefulPartitionedCall/BatchMultiClassNonMaxSuppression_1/MultiClassNonMaxSuppression/range_5/delta", "op": "Const", "attr": {"value": {"tensor": {"dtype": "DT_INT32", "tensorShape": {}}}, "dtype": {"type": "DT_INT32"}}}, {"name": "StatefulPartitionedCall/BatchMultiClassNonMaxSuppression_1/MultiClassNonMaxSuppression/zeros_11/Reshape/shape", "op": "Const", "attr": {"value": {"tensor": {"dtype": "DT_INT32", "tensorShape": {"dim": [{"size": "1"}]}}}, "dtype": {"type": "DT_INT32"}}}, {"name": "StatefulPartitionedCall/BatchMultiClassNonMaxSuppression_1/MultiClassNonMaxSuppression/zeros_11/Const", "op": "Const", "attr": {"value": {"tensor": {"dtype": "DT_FLOAT", "tensorShape": {}}}, "dtype": {"type": "DT_FLOAT"}}}, {"name": "StatefulPartitionedCall/BatchMultiClassNonMaxSuppression_1/MultiClassNonMaxSuppression/concat_11/axis", "op": "Const", "attr": {"dtype": {"type": "DT_INT32"}, "value": {"tensor": {"dtype": "DT_INT32", "tensorShape": {}}}}}, {"name": "StatefulPartitionedCall/BatchMultiClassNonMaxSuppression_1/MultiClassNonMaxSuppression/mul_5/x", "op": "Const", "attr": {"dtype": {"type": "DT_FLOAT"}, "value": {"tensor": {"dtype": "DT_FLOAT", "tensorShape": {}}}}}, {"name": "StatefulPartitionedCall/BatchMultiClassNonMaxSuppression_1/MultiClassNonMaxSuppression/ones_5/Reshape/shape", "op": "Const", "attr": {"dtype": {"type": "DT_INT32"}, "value": {"tensor": {"dtype": "DT_INT32", "tensorShape": {"dim": [{"size": "1"}]}}}}}, {"name": "StatefulPartitionedCall/BatchMultiClassNonMaxSuppression_1/MultiClassNonMaxSuppression/ones_5/Const", "op": "Const", "attr": {"value": {"tensor": {"dtype": "DT_FLOAT", "tensorShape": {}}}, "dtype": {"type": "DT_FLOAT"}}}, {"name": "StatefulPartitionedCall/BatchMultiClassNonMaxSuppression_1/MultiClassNonMaxSuppression/range_6/start", "op": "Const", "attr": {"dtype": {"type": "DT_INT32"}, "value": {"tensor": {"dtype": "DT_INT32", "tensorShape": {}}}}}, {"name": "StatefulPartitionedCall/BatchMultiClassNonMaxSuppression_1/MultiClassNonMaxSuppression/range_6/delta", "op": "Const", "attr": {"value": {"tensor": {"dtype": "DT_INT32", "tensorShape": {}}}, "dtype": {"type": "DT_INT32"}}}, {"name": "StatefulPartitionedCall/BatchMultiClassNonMaxSuppression_1/MultiClassNonMaxSuppression/zeros_13/Reshape/shape", "op": "Const", "attr": {"value": {"tensor": {"dtype": "DT_INT32", "tensorShape": {"dim": [{"size": "1"}]}}}, "dtype": {"type": "DT_INT32"}}}, {"name": "StatefulPartitionedCall/BatchMultiClassNonMaxSuppression_1/MultiClassNonMaxSuppression/zeros_13/Const", "op": "Const", "attr": {"dtype": {"type": "DT_FLOAT"}, "value": {"tensor": {"dtype": "DT_FLOAT", "tensorShape": {}}}}}, {"name": "StatefulPartitionedCall/BatchMultiClassNonMaxSuppression_1/MultiClassNonMaxSuppression/concat_13/axis", "op": "Const", "attr": {"value": {"tensor": {"dtype": "DT_INT32", "tensorShape": {}}}, "dtype": {"type": "DT_INT32"}}}, {"name": "StatefulPartitionedCall/BatchMultiClassNonMaxSuppression_1/MultiClassNonMaxSuppression/mul_6/x", "op": "Const", "attr": {"value": {"tensor": {"dtype": "DT_FLOAT", "tensorShape": {}}}, "dtype": {"type": "DT_FLOAT"}}}, {"name": "StatefulPartitionedCall/BatchMultiClassNonMaxSuppression_1/MultiClassNonMaxSuppression/ones_6/Reshape/shape", "op": "Const", "attr": {"value": {"tensor": {"dtype": "DT_INT32", "tensorShape": {"dim": [{"size": "1"}]}}}, "dtype": {"type": "DT_INT32"}}}, {"name": "StatefulPartitionedCall/BatchMultiClassNonMaxSuppression_1/MultiClassNonMaxSuppression/ones_6/Const", "op": "Const", "attr": {"value": {"tensor": {"dtype": "DT_FLOAT", "tensorShape": {}}}, "dtype": {"type": "DT_FLOAT"}}}, {"name": "StatefulPartitionedCall/BatchMultiClassNonMaxSuppression_1/MultiClassNonMaxSuppression/range_7/start", "op": "Const", "attr": {"value": {"tensor": {"dtype": "DT_INT32", "tensorShape": {}}}, "dtype": {"type": "DT_INT32"}}}, {"name": "StatefulPartitionedCall/BatchMultiClassNonMaxSuppression_1/MultiClassNonMaxSuppression/range_7/delta", "op": "Const", "attr": {"dtype": {"type": "DT_INT32"}, "value": {"tensor": {"dtype": "DT_INT32", "tensorShape": {}}}}}, {"name": "StatefulPartitionedCall/BatchMultiClassNonMaxSuppression_1/MultiClassNonMaxSuppression/zeros_15/Reshape/shape", "op": "Const", "attr": {"value": {"tensor": {"dtype": "DT_INT32", "tensorShape": {"dim": [{"size": "1"}]}}}, "dtype": {"type": "DT_INT32"}}}, {"name": "StatefulPartitionedCall/BatchMultiClassNonMaxSuppression_1/MultiClassNonMaxSuppression/zeros_15/Const", "op": "Const", "attr": {"dtype": {"type": "DT_FLOAT"}, "value": {"tensor": {"dtype": "DT_FLOAT", "tensorShape": {}}}}}, {"name": "StatefulPartitionedCall/BatchMultiClassNonMaxSuppression_1/MultiClassNonMaxSuppression/concat_15/axis", "op": "Const", "attr": {"value": {"tensor": {"dtype": "DT_INT32", "tensorShape": {}}}, "dtype": {"type": "DT_INT32"}}}, {"name": "StatefulPartitionedCall/BatchMultiClassNonMaxSuppression_1/MultiClassNonMaxSuppression/mul_7/x", "op": "Const", "attr": {"dtype": {"type": "DT_FLOAT"}, "value": {"tensor": {"dtype": "DT_FLOAT", "tensorShape": {}}}}}, {"name": "StatefulPartitionedCall/BatchMultiClassNonMaxSuppression_1/MultiClassNonMaxSuppression/ones_7/Reshape/shape", "op": "Const", "attr": {"dtype": {"type": "DT_INT32"}, "value": {"tensor": {"dtype": "DT_INT32", "tensorShape": {"dim": [{"size": "1"}]}}}}}, {"name": "StatefulPartitionedCall/BatchMultiClassNonMaxSuppression_1/MultiClassNonMaxSuppression/ones_7/Const", "op": "Const", "attr": {"value": {"tensor": {"dtype": "DT_FLOAT", "tensorShape": {}}}, "dtype": {"type": "DT_FLOAT"}}}, {"name": "StatefulPartitionedCall/BatchMultiClassNonMaxSuppression_1/MultiClassNonMaxSuppression/range_8/start", "op": "Const", "attr": {"value": {"tensor": {"dtype": "DT_INT32", "tensorShape": {}}}, "dtype": {"type": "DT_INT32"}}}, {"name": "StatefulPartitionedCall/BatchMultiClassNonMaxSuppression_1/MultiClassNonMaxSuppression/range_8/delta", "op": "Const", "attr": {"value": {"tensor": {"dtype": "DT_INT32", "tensorShape": {}}}, "dtype": {"type": "DT_INT32"}}}, {"name": "StatefulPartitionedCall/BatchMultiClassNonMaxSuppression_1/MultiClassNonMaxSuppression/zeros_17/Reshape/shape", "op": "Const", "attr": {"value": {"tensor": {"dtype": "DT_INT32", "tensorShape": {"dim": [{"size": "1"}]}}}, "dtype": {"type": "DT_INT32"}}}, {"name": "StatefulPartitionedCall/BatchMultiClassNonMaxSuppression_1/MultiClassNonMaxSuppression/zeros_17/Const", "op": "Const", "attr": {"dtype": {"type": "DT_FLOAT"}, "value": {"tensor": {"dtype": "DT_FLOAT", "tensorShape": {}}}}}, {"name": "StatefulPartitionedCall/BatchMultiClassNonMaxSuppression_1/MultiClassNonMaxSuppression/concat_17/axis", "op": "Const", "attr": {"dtype": {"type": "DT_INT32"}, "value": {"tensor": {"dtype": "DT_INT32", "tensorShape": {}}}}}, {"name": "StatefulPartitionedCall/BatchMultiClassNonMaxSuppression_1/MultiClassNonMaxSuppression/mul_8/x", "op": "Const", "attr": {"value": {"tensor": {"dtype": "DT_FLOAT", "tensorShape": {}}}, "dtype": {"type": "DT_FLOAT"}}}, {"name": "StatefulPartitionedCall/BatchMultiClassNonMaxSuppression_1/MultiClassNonMaxSuppression/ones_8/Reshape/shape", "op": "Const", "attr": {"value": {"tensor": {"dtype": "DT_INT32", "tensorShape": {"dim": [{"size": "1"}]}}}, "dtype": {"type": "DT_INT32"}}}, {"name": "StatefulPartitionedCall/BatchMultiClassNonMaxSuppression_1/MultiClassNonMaxSuppression/ones_8/Const", "op": "Const", "attr": {"dtype": {"type": "DT_FLOAT"}, "value": {"tensor": {"dtype": "DT_FLOAT", "tensorShape": {}}}}}, {"name": "StatefulPartitionedCall/BatchMultiClassNonMaxSuppression_1/MultiClassNonMaxSuppression/range_9/start", "op": "Const", "attr": {"dtype": {"type": "DT_INT32"}, "value": {"tensor": {"dtype": "DT_INT32", "tensorShape": {}}}}}, {"name": "StatefulPartitionedCall/BatchMultiClassNonMaxSuppression_1/MultiClassNonMaxSuppression/range_9/delta", "op": "Const", "attr": {"value": {"tensor": {"dtype": "DT_INT32", "tensorShape": {}}}, "dtype": {"type": "DT_INT32"}}}, {"name": "StatefulPartitionedCall/BatchMultiClassNonMaxSuppression_1/MultiClassNonMaxSuppression/zeros_19/Reshape/shape", "op": "Const", "attr": {"value": {"tensor": {"dtype": "DT_INT32", "tensorShape": {"dim": [{"size": "1"}]}}}, "dtype": {"type": "DT_INT32"}}}, {"name": "StatefulPartitionedCall/BatchMultiClassNonMaxSuppression_1/MultiClassNonMaxSuppression/zeros_19/Const", "op": "Const", "attr": {"value": {"tensor": {"dtype": "DT_FLOAT", "tensorShape": {}}}, "dtype": {"type": "DT_FLOAT"}}}, {"name": "StatefulPartitionedCall/BatchMultiClassNonMaxSuppression_1/MultiClassNonMaxSuppression/concat_19/axis", "op": "Const", "attr": {"dtype": {"type": "DT_INT32"}, "value": {"tensor": {"dtype": "DT_INT32", "tensorShape": {}}}}}, {"name": "StatefulPartitionedCall/BatchMultiClassNonMaxSuppression_1/MultiClassNonMaxSuppression/mul_9/x", "op": "Const", "attr": {"dtype": {"type": "DT_FLOAT"}, "value": {"tensor": {"dtype": "DT_FLOAT", "tensorShape": {}}}}}, {"name": "StatefulPartitionedCall/BatchMultiClassNonMaxSuppression_1/MultiClassNonMaxSuppression/ones_9/Reshape/shape", "op": "Const", "attr": {"dtype": {"type": "DT_INT32"}, "value": {"tensor": {"dtype": "DT_INT32", "tensorShape": {"dim": [{"size": "1"}]}}}}}, {"name": "StatefulPartitionedCall/BatchMultiClassNonMaxSuppression_1/MultiClassNonMaxSuppression/ones_9/Const", "op": "Const", "attr": {"dtype": {"type": "DT_FLOAT"}, "value": {"tensor": {"dtype": "DT_FLOAT", "tensorShape": {}}}}}, {"name": "StatefulPartitionedCall/BatchMultiClassNonMaxSuppression_1/MultiClassNonMaxSuppression/range_10/start", "op": "Const", "attr": {"value": {"tensor": {"dtype": "DT_INT32", "tensorShape": {}}}, "dtype": {"type": "DT_INT32"}}}, {"name": "StatefulPartitionedCall/BatchMultiClassNonMaxSuppression_1/MultiClassNonMaxSuppression/range_10/delta", "op": "Const", "attr": {"value": {"tensor": {"dtype": "DT_INT32", "tensorShape": {}}}, "dtype": {"type": "DT_INT32"}}}, {"name": "StatefulPartitionedCall/BatchMultiClassNonMaxSuppression_1/MultiClassNonMaxSuppression/zeros_21/Reshape/shape", "op": "Const", "attr": {"dtype": {"type": "DT_INT32"}, "value": {"tensor": {"dtype": "DT_INT32", "tensorShape": {"dim": [{"size": "1"}]}}}}}, {"name": "StatefulPartitionedCall/BatchMultiClassNonMaxSuppression_1/MultiClassNonMaxSuppression/zeros_21/Const", "op": "Const", "attr": {"dtype": {"type": "DT_FLOAT"}, "value": {"tensor": {"dtype": "DT_FLOAT", "tensorShape": {}}}}}, {"name": "StatefulPartitionedCall/BatchMultiClassNonMaxSuppression_1/MultiClassNonMaxSuppression/concat_21/axis", "op": "Const", "attr": {"dtype": {"type": "DT_INT32"}, "value": {"tensor": {"dtype": "DT_INT32", "tensorShape": {}}}}}, {"name": "StatefulPartitionedCall/BatchMultiClassNonMaxSuppression_1/MultiClassNonMaxSuppression/mul_10/x", "op": "Const", "attr": {"dtype": {"type": "DT_FLOAT"}, "value": {"tensor": {"dtype": "DT_FLOAT", "tensorShape": {}}}}}, {"name": "StatefulPartitionedCall/BatchMultiClassNonMaxSuppression_1/MultiClassNonMaxSuppression/ones_10/Reshape/shape", "op": "Const", "attr": {"dtype": {"type": "DT_INT32"}, "value": {"tensor": {"dtype": "DT_INT32", "tensorShape": {"dim": [{"size": "1"}]}}}}}, {"name": "StatefulPartitionedCall/BatchMultiClassNonMaxSuppression_1/MultiClassNonMaxSuppression/ones_10/Const", "op": "Const", "attr": {"value": {"tensor": {"dtype": "DT_FLOAT", "tensorShape": {}}}, "dtype": {"type": "DT_FLOAT"}}}, {"name": "StatefulPartitionedCall/BatchMultiClassNonMaxSuppression_1/MultiClassNonMaxSuppression/range_11/start", "op": "Const", "attr": {"dtype": {"type": "DT_INT32"}, "value": {"tensor": {"dtype": "DT_INT32", "tensorShape": {}}}}}, {"name": "StatefulPartitionedCall/BatchMultiClassNonMaxSuppression_1/MultiClassNonMaxSuppression/range_11/delta", "op": "Const", "attr": {"value": {"tensor": {"dtype": "DT_INT32", "tensorShape": {}}}, "dtype": {"type": "DT_INT32"}}}, {"name": "StatefulPartitionedCall/BatchMultiClassNonMaxSuppression_1/MultiClassNonMaxSuppression/zeros_23/Reshape/shape", "op": "Const", "attr": {"dtype": {"type": "DT_INT32"}, "value": {"tensor": {"dtype": "DT_INT32", "tensorShape": {"dim": [{"size": "1"}]}}}}}, {"name": "StatefulPartitionedCall/BatchMultiClassNonMaxSuppression_1/MultiClassNonMaxSuppression/zeros_23/Const", "op": "Const", "attr": {"dtype": {"type": "DT_FLOAT"}, "value": {"tensor": {"dtype": "DT_FLOAT", "tensorShape": {}}}}}, {"name": "StatefulPartitionedCall/BatchMultiClassNonMaxSuppression_1/MultiClassNonMaxSuppression/concat_23/axis", "op": "Const", "attr": {"value": {"tensor": {"dtype": "DT_INT32", "tensorShape": {}}}, "dtype": {"type": "DT_INT32"}}}, {"name": "StatefulPartitionedCall/BatchMultiClassNonMaxSuppression_1/MultiClassNonMaxSuppression/mul_11/x", "op": "Const", "attr": {"value": {"tensor": {"dtype": "DT_FLOAT", "tensorShape": {}}}, "dtype": {"type": "DT_FLOAT"}}}, {"name": "StatefulPartitionedCall/BatchMultiClassNonMaxSuppression_1/MultiClassNonMaxSuppression/ones_11/Reshape/shape", "op": "Const", "attr": {"value": {"tensor": {"dtype": "DT_INT32", "tensorShape": {"dim": [{"size": "1"}]}}}, "dtype": {"type": "DT_INT32"}}}, {"name": "StatefulPartitionedCall/BatchMultiClassNonMaxSuppression_1/MultiClassNonMaxSuppression/ones_11/Const", "op": "Const", "attr": {"value": {"tensor": {"dtype": "DT_FLOAT", "tensorShape": {}}}, "dtype": {"type": "DT_FLOAT"}}}, {"name": "StatefulPartitionedCall/BatchMultiClassNonMaxSuppression_1/MultiClassNonMaxSuppression/range_12/start", "op": "Const", "attr": {"dtype": {"type": "DT_INT32"}, "value": {"tensor": {"dtype": "DT_INT32", "tensorShape": {}}}}}, {"name": "StatefulPartitionedCall/BatchMultiClassNonMaxSuppression_1/MultiClassNonMaxSuppression/range_12/delta", "op": "Const", "attr": {"value": {"tensor": {"dtype": "DT_INT32", "tensorShape": {}}}, "dtype": {"type": "DT_INT32"}}}, {"name": "StatefulPartitionedCall/BatchMultiClassNonMaxSuppression_1/MultiClassNonMaxSuppression/zeros_25/Reshape/shape", "op": "Const", "attr": {"value": {"tensor": {"dtype": "DT_INT32", "tensorShape": {"dim": [{"size": "1"}]}}}, "dtype": {"type": "DT_INT32"}}}, {"name": "StatefulPartitionedCall/BatchMultiClassNonMaxSuppression_1/MultiClassNonMaxSuppression/zeros_25/Const", "op": "Const", "attr": {"value": {"tensor": {"dtype": "DT_FLOAT", "tensorShape": {}}}, "dtype": {"type": "DT_FLOAT"}}}, {"name": "StatefulPartitionedCall/BatchMultiClassNonMaxSuppression_1/MultiClassNonMaxSuppression/concat_25/axis", "op": "Const", "attr": {"value": {"tensor": {"dtype": "DT_INT32", "tensorShape": {}}}, "dtype": {"type": "DT_INT32"}}}, {"name": "StatefulPartitionedCall/BatchMultiClassNonMaxSuppression_1/MultiClassNonMaxSuppression/mul_12/x", "op": "Const", "attr": {"value": {"tensor": {"dtype": "DT_FLOAT", "tensorShape": {}}}, "dtype": {"type": "DT_FLOAT"}}}, {"name": "StatefulPartitionedCall/BatchMultiClassNonMaxSuppression_1/MultiClassNonMaxSuppression/ones_12/Reshape/shape", "op": "Const", "attr": {"value": {"tensor": {"dtype": "DT_INT32", "tensorShape": {"dim": [{"size": "1"}]}}}, "dtype": {"type": "DT_INT32"}}}, {"name": "StatefulPartitionedCall/BatchMultiClassNonMaxSuppression_1/MultiClassNonMaxSuppression/ones_12/Const", "op": "Const", "attr": {"dtype": {"type": "DT_FLOAT"}, "value": {"tensor": {"dtype": "DT_FLOAT", "tensorShape": {}}}}}, {"name": "StatefulPartitionedCall/BatchMultiClassNonMaxSuppression_1/MultiClassNonMaxSuppression/range_13/start", "op": "Const", "attr": {"value": {"tensor": {"dtype": "DT_INT32", "tensorShape": {}}}, "dtype": {"type": "DT_INT32"}}}, {"name": "StatefulPartitionedCall/BatchMultiClassNonMaxSuppression_1/MultiClassNonMaxSuppression/range_13/delta", "op": "Const", "attr": {"dtype": {"type": "DT_INT32"}, "value": {"tensor": {"dtype": "DT_INT32", "tensorShape": {}}}}}, {"name": "StatefulPartitionedCall/BatchMultiClassNonMaxSuppression_1/MultiClassNonMaxSuppression/zeros_27/Reshape/shape", "op": "Const", "attr": {"dtype": {"type": "DT_INT32"}, "value": {"tensor": {"dtype": "DT_INT32", "tensorShape": {"dim": [{"size": "1"}]}}}}}, {"name": "StatefulPartitionedCall/BatchMultiClassNonMaxSuppression_1/MultiClassNonMaxSuppression/zeros_27/Const", "op": "Const", "attr": {"value": {"tensor": {"dtype": "DT_FLOAT", "tensorShape": {}}}, "dtype": {"type": "DT_FLOAT"}}}, {"name": "StatefulPartitionedCall/BatchMultiClassNonMaxSuppression_1/MultiClassNonMaxSuppression/concat_27/axis", "op": "Const", "attr": {"dtype": {"type": "DT_INT32"}, "value": {"tensor": {"dtype": "DT_INT32", "tensorShape": {}}}}}, {"name": "StatefulPartitionedCall/BatchMultiClassNonMaxSuppression_1/MultiClassNonMaxSuppression/mul_13/x", "op": "Const", "attr": {"dtype": {"type": "DT_FLOAT"}, "value": {"tensor": {"dtype": "DT_FLOAT", "tensorShape": {}}}}}, {"name": "StatefulPartitionedCall/BatchMultiClassNonMaxSuppression_1/MultiClassNonMaxSuppression/ones_13/Reshape/shape", "op": "Const", "attr": {"value": {"tensor": {"dtype": "DT_INT32", "tensorShape": {"dim": [{"size": "1"}]}}}, "dtype": {"type": "DT_INT32"}}}, {"name": "StatefulPartitionedCall/BatchMultiClassNonMaxSuppression_1/MultiClassNonMaxSuppression/ones_13/Const", "op": "Const", "attr": {"value": {"tensor": {"dtype": "DT_FLOAT", "tensorShape": {}}}, "dtype": {"type": "DT_FLOAT"}}}, {"name": "StatefulPartitionedCall/BatchMultiClassNonMaxSuppression_1/MultiClassNonMaxSuppression/range_14/start", "op": "Const", "attr": {"dtype": {"type": "DT_INT32"}, "value": {"tensor": {"dtype": "DT_INT32", "tensorShape": {}}}}}, {"name": "StatefulPartitionedCall/BatchMultiClassNonMaxSuppression_1/MultiClassNonMaxSuppression/range_14/delta", "op": "Const", "attr": {"value": {"tensor": {"dtype": "DT_INT32", "tensorShape": {}}}, "dtype": {"type": "DT_INT32"}}}, {"name": "StatefulPartitionedCall/BatchMultiClassNonMaxSuppression_1/MultiClassNonMaxSuppression/zeros_29/Reshape/shape", "op": "Const", "attr": {"value": {"tensor": {"dtype": "DT_INT32", "tensorShape": {"dim": [{"size": "1"}]}}}, "dtype": {"type": "DT_INT32"}}}, {"name": "StatefulPartitionedCall/BatchMultiClassNonMaxSuppression_1/MultiClassNonMaxSuppression/zeros_29/Const", "op": "Const", "attr": {"value": {"tensor": {"dtype": "DT_FLOAT", "tensorShape": {}}}, "dtype": {"type": "DT_FLOAT"}}}, {"name": "StatefulPartitionedCall/BatchMultiClassNonMaxSuppression_1/MultiClassNonMaxSuppression/concat_29/axis", "op": "Const", "attr": {"dtype": {"type": "DT_INT32"}, "value": {"tensor": {"dtype": "DT_INT32", "tensorShape": {}}}}}, {"name": "StatefulPartitionedCall/BatchMultiClassNonMaxSuppression_1/MultiClassNonMaxSuppression/mul_14/x", "op": "Const", "attr": {"value": {"tensor": {"dtype": "DT_FLOAT", "tensorShape": {}}}, "dtype": {"type": "DT_FLOAT"}}}, {"name": "StatefulPartitionedCall/BatchMultiClassNonMaxSuppression_1/MultiClassNonMaxSuppression/ones_14/Reshape/shape", "op": "Const", "attr": {"value": {"tensor": {"dtype": "DT_INT32", "tensorShape": {"dim": [{"size": "1"}]}}}, "dtype": {"type": "DT_INT32"}}}, {"name": "StatefulPartitionedCall/BatchMultiClassNonMaxSuppression_1/MultiClassNonMaxSuppression/ones_14/Const", "op": "Const", "attr": {"value": {"tensor": {"dtype": "DT_FLOAT", "tensorShape": {}}}, "dtype": {"type": "DT_FLOAT"}}}, {"name": "StatefulPartitionedCall/BatchMultiClassNonMaxSuppression_1/MultiClassNonMaxSuppression/range_15/start", "op": "Const", "attr": {"value": {"tensor": {"dtype": "DT_INT32", "tensorShape": {}}}, "dtype": {"type": "DT_INT32"}}}, {"name": "StatefulPartitionedCall/BatchMultiClassNonMaxSuppression_1/MultiClassNonMaxSuppression/range_15/delta", "op": "Const", "attr": {"value": {"tensor": {"dtype": "DT_INT32", "tensorShape": {}}}, "dtype": {"type": "DT_INT32"}}}, {"name": "StatefulPartitionedCall/BatchMultiClassNonMaxSuppression_1/MultiClassNonMaxSuppression/zeros_31/Reshape/shape", "op": "Const", "attr": {"dtype": {"type": "DT_INT32"}, "value": {"tensor": {"dtype": "DT_INT32", "tensorShape": {"dim": [{"size": "1"}]}}}}}, {"name": "StatefulPartitionedCall/BatchMultiClassNonMaxSuppression_1/MultiClassNonMaxSuppression/zeros_31/Const", "op": "Const", "attr": {"dtype": {"type": "DT_FLOAT"}, "value": {"tensor": {"dtype": "DT_FLOAT", "tensorShape": {}}}}}, {"name": "StatefulPartitionedCall/BatchMultiClassNonMaxSuppression_1/MultiClassNonMaxSuppression/concat_31/axis", "op": "Const", "attr": {"dtype": {"type": "DT_INT32"}, "value": {"tensor": {"dtype": "DT_INT32", "tensorShape": {}}}}}, {"name": "StatefulPartitionedCall/BatchMultiClassNonMaxSuppression_1/MultiClassNonMaxSuppression/mul_15/x", "op": "Const", "attr": {"value": {"tensor": {"dtype": "DT_FLOAT", "tensorShape": {}}}, "dtype": {"type": "DT_FLOAT"}}}, {"name": "StatefulPartitionedCall/BatchMultiClassNonMaxSuppression_1/MultiClassNonMaxSuppression/ones_15/Reshape/shape", "op": "Const", "attr": {"value": {"tensor": {"dtype": "DT_INT32", "tensorShape": {"dim": [{"size": "1"}]}}}, "dtype": {"type": "DT_INT32"}}}, {"name": "StatefulPartitionedCall/BatchMultiClassNonMaxSuppression_1/MultiClassNonMaxSuppression/ones_15/Const", "op": "Const", "attr": {"value": {"tensor": {"dtype": "DT_FLOAT", "tensorShape": {}}}, "dtype": {"type": "DT_FLOAT"}}}, {"name": "StatefulPartitionedCall/BatchMultiClassNonMaxSuppression_1/MultiClassNonMaxSuppression/range_16/start", "op": "Const", "attr": {"dtype": {"type": "DT_INT32"}, "value": {"tensor": {"dtype": "DT_INT32", "tensorShape": {}}}}}, {"name": "StatefulPartitionedCall/BatchMultiClassNonMaxSuppression_1/MultiClassNonMaxSuppression/range_16/delta", "op": "Const", "attr": {"value": {"tensor": {"dtype": "DT_INT32", "tensorShape": {}}}, "dtype": {"type": "DT_INT32"}}}, {"name": "StatefulPartitionedCall/BatchMultiClassNonMaxSuppression_1/MultiClassNonMaxSuppression/zeros_33/Reshape/shape", "op": "Const", "attr": {"dtype": {"type": "DT_INT32"}, "value": {"tensor": {"dtype": "DT_INT32", "tensorShape": {"dim": [{"size": "1"}]}}}}}, {"name": "StatefulPartitionedCall/BatchMultiClassNonMaxSuppression_1/MultiClassNonMaxSuppression/zeros_33/Const", "op": "Const", "attr": {"dtype": {"type": "DT_FLOAT"}, "value": {"tensor": {"dtype": "DT_FLOAT", "tensorShape": {}}}}}, {"name": "StatefulPartitionedCall/BatchMultiClassNonMaxSuppression_1/MultiClassNonMaxSuppression/concat_33/axis", "op": "Const", "attr": {"value": {"tensor": {"dtype": "DT_INT32", "tensorShape": {}}}, "dtype": {"type": "DT_INT32"}}}, {"name": "StatefulPartitionedCall/BatchMultiClassNonMaxSuppression_1/MultiClassNonMaxSuppression/mul_16/x", "op": "Const", "attr": {"value": {"tensor": {"dtype": "DT_FLOAT", "tensorShape": {}}}, "dtype": {"type": "DT_FLOAT"}}}, {"name": "StatefulPartitionedCall/BatchMultiClassNonMaxSuppression_1/MultiClassNonMaxSuppression/ones_16/Reshape/shape", "op": "Const", "attr": {"value": {"tensor": {"dtype": "DT_INT32", "tensorShape": {"dim": [{"size": "1"}]}}}, "dtype": {"type": "DT_INT32"}}}, {"name": "StatefulPartitionedCall/BatchMultiClassNonMaxSuppression_1/MultiClassNonMaxSuppression/ones_16/Const", "op": "Const", "attr": {"value": {"tensor": {"dtype": "DT_FLOAT", "tensorShape": {}}}, "dtype": {"type": "DT_FLOAT"}}}, {"name": "StatefulPartitionedCall/BatchMultiClassNonMaxSuppression_1/MultiClassNonMaxSuppression/range_17/start", "op": "Const", "attr": {"value": {"tensor": {"dtype": "DT_INT32", "tensorShape": {}}}, "dtype": {"type": "DT_INT32"}}}, {"name": "StatefulPartitionedCall/BatchMultiClassNonMaxSuppression_1/MultiClassNonMaxSuppression/range_17/delta", "op": "Const", "attr": {"dtype": {"type": "DT_INT32"}, "value": {"tensor": {"dtype": "DT_INT32", "tensorShape": {}}}}}, {"name": "StatefulPartitionedCall/BatchMultiClassNonMaxSuppression_1/MultiClassNonMaxSuppression/zeros_35/Reshape/shape", "op": "Const", "attr": {"value": {"tensor": {"dtype": "DT_INT32", "tensorShape": {"dim": [{"size": "1"}]}}}, "dtype": {"type": "DT_INT32"}}}, {"name": "StatefulPartitionedCall/BatchMultiClassNonMaxSuppression_1/MultiClassNonMaxSuppression/zeros_35/Const", "op": "Const", "attr": {"value": {"tensor": {"dtype": "DT_FLOAT", "tensorShape": {}}}, "dtype": {"type": "DT_FLOAT"}}}, {"name": "StatefulPartitionedCall/BatchMultiClassNonMaxSuppression_1/MultiClassNonMaxSuppression/concat_35/axis", "op": "Const", "attr": {"dtype": {"type": "DT_INT32"}, "value": {"tensor": {"dtype": "DT_INT32", "tensorShape": {}}}}}, {"name": "StatefulPartitionedCall/BatchMultiClassNonMaxSuppression_1/MultiClassNonMaxSuppression/mul_17/x", "op": "Const", "attr": {"dtype": {"type": "DT_FLOAT"}, "value": {"tensor": {"dtype": "DT_FLOAT", "tensorShape": {}}}}}, {"name": "StatefulPartitionedCall/BatchMultiClassNonMaxSuppression_1/MultiClassNonMaxSuppression/ones_17/Reshape/shape", "op": "Const", "attr": {"dtype": {"type": "DT_INT32"}, "value": {"tensor": {"dtype": "DT_INT32", "tensorShape": {"dim": [{"size": "1"}]}}}}}, {"name": "StatefulPartitionedCall/BatchMultiClassNonMaxSuppression_1/MultiClassNonMaxSuppression/ones_17/Const", "op": "Const", "attr": {"value": {"tensor": {"dtype": "DT_FLOAT", "tensorShape": {}}}, "dtype": {"type": "DT_FLOAT"}}}, {"name": "StatefulPartitionedCall/BatchMultiClassNonMaxSuppression_1/MultiClassNonMaxSuppression/range_18/start", "op": "Const", "attr": {"value": {"tensor": {"dtype": "DT_INT32", "tensorShape": {}}}, "dtype": {"type": "DT_INT32"}}}, {"name": "StatefulPartitionedCall/BatchMultiClassNonMaxSuppression_1/MultiClassNonMaxSuppression/range_18/delta", "op": "Const", "attr": {"dtype": {"type": "DT_INT32"}, "value": {"tensor": {"dtype": "DT_INT32", "tensorShape": {}}}}}, {"name": "StatefulPartitionedCall/BatchMultiClassNonMaxSuppression_1/MultiClassNonMaxSuppression/zeros_37/Reshape/shape", "op": "Const", "attr": {"value": {"tensor": {"dtype": "DT_INT32", "tensorShape": {"dim": [{"size": "1"}]}}}, "dtype": {"type": "DT_INT32"}}}, {"name": "StatefulPartitionedCall/BatchMultiClassNonMaxSuppression_1/MultiClassNonMaxSuppression/zeros_37/Const", "op": "Const", "attr": {"dtype": {"type": "DT_FLOAT"}, "value": {"tensor": {"dtype": "DT_FLOAT", "tensorShape": {}}}}}, {"name": "StatefulPartitionedCall/BatchMultiClassNonMaxSuppression_1/MultiClassNonMaxSuppression/concat_37/axis", "op": "Const", "attr": {"dtype": {"type": "DT_INT32"}, "value": {"tensor": {"dtype": "DT_INT32", "tensorShape": {}}}}}, {"name": "StatefulPartitionedCall/BatchMultiClassNonMaxSuppression_1/MultiClassNonMaxSuppression/mul_18/x", "op": "Const", "attr": {"dtype": {"type": "DT_FLOAT"}, "value": {"tensor": {"dtype": "DT_FLOAT", "tensorShape": {}}}}}, {"name": "StatefulPa…
oat32"}, {"name": "StatefulPartitionedCall/functional_1/conv2d_53/Conv2D_weights", "shape": [3, 3, 48, 64], "dtype": "float32"}, {"name": "StatefulPartitionedCall/functional_1/conv2d_53/Conv2D_bn_offset", "shape": [64], "dtype": "float32"}, {"name": "StatefulPartitionedCall/functional_1/conv2d_54/Conv2D_weights", "shape": [1, 1, 320, 32], "dtype": "float32"}, {"name": "StatefulPartitionedCall/functional_1/conv2d_54/Conv2D_bn_offset", "shape": [32], "dtype": "float32"}, {"name": "StatefulPartitionedCall/functional_1/conv2d_55/Conv2D_weights", "shape": [1, 1, 320, 32], "dtype": "float32"}, {"name": "StatefulPartitionedCall/functional_1/conv2d_55/Conv2D_bn_offset", "shape": [32], "dtype": "float32"}, {"name": "StatefulPartitionedCall/functional_1/conv2d_57/Conv2D_weights", "shape": [1, 1, 320, 32], "dtype": "float32"}, {"name": "StatefulPartitionedCall/functional_1/conv2d_57/Conv2D_bn_offset", "shape": [32], "dtype": "float32"}, {"name": "StatefulPartitionedCall/functional_1/conv2d_56/Conv2D_weights", "shape": [3, 3, 32, 32], "dtype": "float32"}, {"name": "StatefulPartitionedCall/functional_1/conv2d_56/Conv2D_bn_offset", "shape": [32], "dtype": "float32"}, {"name": "StatefulPartitionedCall/functional_1/conv2d_58/Conv2D_weights", "shape": [3, 3, 32, 48], "dtype": "float32"}, {"name": "StatefulPartitionedCall/functional_1/conv2d_58/Conv2D_bn_offset", "shape": [48], "dtype": "float32"}, {"name": "StatefulPartitionedCall/functional_1/conv2d_59/Conv2D_weights", "shape": [3, 3, 48, 64], "dtype": "float32"}, {"name": "StatefulPartitionedCall/functional_1/conv2d_59/Conv2D_bn_offset", "shape": [64], "dtype": "float32"}, {"name": "StatefulPartitionedCall/functional_1/conv2d_60/Conv2D_weights", "shape": [1, 1, 320, 32], "dtype": "float32"}, {"name": "StatefulPartitionedCall/functional_1/conv2d_60/Conv2D_bn_offset", "shape": [32], "dtype": "float32"}, {"name": "StatefulPartitionedCall/functional_1/conv2d_61/Conv2D_weights", "shape": [1, 1, 320, 32], "dtype": "float32"}, {"name": "StatefulPartitionedCall/functional_1/conv2d_61/Conv2D_bn_offset", "shape": [32], "dtype": "float32"}, {"name": "StatefulPartitionedCall/functional_1/conv2d_63/Conv2D_weights", "shape": [1, 1, 320, 32], "dtype": "float32"}, {"name": "StatefulPartitionedCall/functional_1/conv2d_63/Conv2D_bn_offset", "shape": [32], "dtype": "float32"}, {"name": "StatefulPartitionedCall/functional_1/conv2d_62/Conv2D_weights", "shape": [3, 3, 32, 32], "dtype": "float32"}, {"name": "StatefulPartitionedCall/functional_1/conv2d_62/Conv2D_bn_offset", "shape": [32], "dtype": "float32"}, {"name": "StatefulPartitionedCall/functional_1/conv2d_64/Conv2D_weights", "shape": [3, 3, 32, 48], "dtype": "float32"}, {"name": "StatefulPartitionedCall/functional_1/conv2d_64/Conv2D_bn_offset", "shape": [48], "dtype": "float32"}, {"name": "StatefulPartitionedCall/functional_1/conv2d_65/Conv2D_weights", "shape": [3, 3, 48, 64], "dtype": "float32"}, {"name": "StatefulPartitionedCall/functional_1/conv2d_65/Conv2D_bn_offset", "shape": [64], "dtype": "float32"}, {"name": "StatefulPartitionedCall/functional_1/conv2d_66/Conv2D_weights", "shape": [1, 1, 320, 32], "dtype": "float32"}, {"name": "StatefulPartitionedCall/functional_1/conv2d_66/Conv2D_bn_offset", "shape": [32], "dtype": "float32"}, {"name": "StatefulPartitionedCall/functional_1/conv2d_67/Conv2D_weights", "shape": [1, 1, 320, 32], "dtype": "float32"}, {"name": "StatefulPartitionedCall/functional_1/conv2d_67/Conv2D_bn_offset", "shape": [32], "dtype": "float32"}, {"name": "StatefulPartitionedCall/functional_1/conv2d_69/Conv2D_weights", "shape": [1, 1, 320, 32], "dtype": "float32"}, {"name": "StatefulPartitionedCall/functional_1/conv2d_69/Conv2D_bn_offset", "shape": [32], "dtype": "float32"}, {"name": "StatefulPartitionedCall/functional_1/conv2d_68/Conv2D_weights", "shape": [3, 3, 32, 32], "dtype": "float32"}, {"name": "StatefulPartitionedCall/functional_1/conv2d_68/Conv2D_bn_offset", "shape": [32], "dtype": "float32"}, {"name": "StatefulPartitionedCall/functional_1/conv2d_70/Conv2D_weights", "shape": [3, 3, 32, 48], "dtype": "float32"}, {"name": "StatefulPartitionedCall/functional_1/conv2d_70/Conv2D_bn_offset", "shape": [48], "dtype": "float32"}, {"name": "StatefulPartitionedCall/functional_1/conv2d_71/Conv2D_weights", "shape": [3, 3, 48, 64], "dtype": "float32"}, {"name": "StatefulPartitionedCall/functional_1/conv2d_71/Conv2D_bn_offset", "shape": [64], "dtype": "float32"}, {"name": "StatefulPartitionedCall/functional_1/conv2d_72/Conv2D_weights", "shape": [3, 3, 320, 384], "dtype": "float32"}, {"name": "StatefulPartitionedCall/functional_1/conv2d_72/Conv2D_bn_offset", "shape": [384], "dtype": "float32"}, {"name": "StatefulPartitionedCall/functional_1/conv2d_73/Conv2D_weights", "shape": [1, 1, 320, 256], "dtype": "float32"}, {"name": "StatefulPartitionedCall/functional_1/conv2d_73/Conv2D_bn_offset", "shape": [256], "dtype": "float32"}, {"name": "StatefulPartitionedCall/functional_1/conv2d_74/Conv2D_weights", "shape": [3, 3, 256, 256], "dtype": "float32"}, {"name": "StatefulPartitionedCall/functional_1/conv2d_74/Conv2D_bn_offset", "shape": [256], "dtype": "float32"}, {"name": "StatefulPartitionedCall/functional_1/conv2d_75/Conv2D_weights", "shape": [3, 3, 256, 384], "dtype": "float32"}, {"name": "StatefulPartitionedCall/functional_1/conv2d_75/Conv2D_bn_offset", "shape": [384], "dtype": "float32"}, {"name": "StatefulPartitionedCall/functional_1/conv2d_76/Conv2D_weights", "shape": [1, 1, 1088, 192], "dtype": "float32"}, {"name": "StatefulPartitionedCall/functional_1/conv2d_76/Conv2D_bn_offset", "shape": [192], "dtype": "float32"}, {"name": "StatefulPartitionedCall/functional_1/conv2d_77/Conv2D_weights", "shape": [1, 1, 1088, 128], "dtype": "float32"}, {"name": "StatefulPartitionedCall/functional_1/conv2d_77/Conv2D_bn_offset", "shape": [128], "dtype": "float32"}, {"name": "StatefulPartitionedCall/functional_1/conv2d_78/Conv2D_weights", "shape": [1, 7, 128, 160], "dtype": "float32"}, {"name": "StatefulPartitionedCall/functional_1/conv2d_78/Conv2D_bn_offset", "shape": [160], "dtype": "float32"}, {"name": "StatefulPartitionedCall/functional_1/conv2d_79/Conv2D_weights", "shape": [7, 1, 160, 192], "dtype": "float32"}, {"name": "StatefulPartitionedCall/functional_1/conv2d_79/Conv2D_bn_offset", "shape": [192], "dtype": "float32"}, {"name": "StatefulPartitionedCall/functional_1/conv2d_80/Conv2D_weights", "shape": [1, 1, 1088, 192], "dtype": "float32"}, {"name": "StatefulPartitionedCall/functional_1/conv2d_80/Conv2D_bn_offset", "shape": [192], "dtype": "float32"}, {"name": "StatefulPartitionedCall/functional_1/conv2d_81/Conv2D_weights", "shape": [1, 1, 1088, 128], "dtype": "float32"}, {"name": "StatefulPartitionedCall/functional_1/conv2d_81/Conv2D_bn_offset", "shape": [128], "dtype": "float32"}, {"name": "StatefulPartitionedCall/functional_1/conv2d_82/Conv2D_weights", "shape": [1, 7, 128, 160], "dtype": "float32"}, {"name": "StatefulPartitionedCall/functional_1/conv2d_82/Conv2D_bn_offset", "shape": [160], "dtype": "float32"}, {"name": "StatefulPartitionedCall/functional_1/conv2d_83/Conv2D_weights", "shape": [7, 1, 160, 192], "dtype": "float32"}, {"name": "StatefulPartitionedCall/functional_1/conv2d_83/Conv2D_bn_offset", "shape": [192], "dtype": "float32"}, {"name": "StatefulPartitionedCall/functional_1/conv2d_84/Conv2D_weights", "shape": [1, 1, 1088, 192], "dtype": "float32"}, {"name": "StatefulPartitionedCall/functional_1/conv2d_84/Conv2D_bn_offset", "shape": [192], "dtype": "float32"}, {"name": "StatefulPartitionedCall/functional_1/conv2d_85/Conv2D_weights", "shape": [1, 1, 1088, 128], "dtype": "float32"}, {"name": "StatefulPartitionedCall/functional_1/conv2d_85/Conv2D_bn_offset", "shape": [128], "dtype": "float32"}, {"name": "StatefulPartitionedCall/functional_1/conv2d_86/Conv2D_weights", "shape": [1, 7, 128, 160], "dtype": "float32"}, {"name": "StatefulPartitionedCall/functional_1/conv2d_86/Conv2D_bn_offset", "shape": [160], "dtype": "float32"}, {"name": "StatefulPartitionedCall/functional_1/conv2d_87/Conv2D_weights", "shape": [7, 1, 160, 192], "dtype": "float32"}, {"name": "StatefulPartitionedCall/functional_1/conv2d_87/Conv2D_bn_offset", "shape": [192], "dtype": "float32"}, {"name": "StatefulPartitionedCall/functional_1/conv2d_88/Conv2D_weights", "shape": [1, 1, 1088, 192], "dtype": "float32"}, {"name": "StatefulPartitionedCall/functional_1/conv2d_88/Conv2D_bn_offset", "shape": [192], "dtype": "float32"}, {"name": "StatefulPartitionedCall/functional_1/conv2d_89/Conv2D_weights", "shape": [1, 1, 1088, 128], "dtype": "float32"}, {"name": "StatefulPartitionedCall/functional_1/conv2d_89/Conv2D_bn_offset", "shape": [128], "dtype": "float32"}, {"name": "StatefulPartitionedCall/functional_1/conv2d_90/Conv2D_weights", "shape": [1, 7, 128, 160], "dtype": "float32"}, {"name": "StatefulPartitionedCall/functional_1/conv2d_90/Conv2D_bn_offset", "shape": [160], "dtype": "float32"}, {"name": "StatefulPartitionedCall/functional_1/conv2d_91/Conv2D_weights", "shape": [7, 1, 160, 192], "dtype": "float32"}, {"name": "StatefulPartitionedCall/functional_1/conv2d_91/Conv2D_bn_offset", "shape": [192], "dtype": "float32"}, {"name": "StatefulPartitionedCall/functional_1/conv2d_92/Conv2D_weights", "shape": [1, 1, 1088, 192], "dtype": "float32"}, {"name": "StatefulPartitionedCall/functional_1/conv2d_92/Conv2D_bn_offset", "shape": [192], "dtype": "float32"}, {"name": "StatefulPartitionedCall/functional_1/conv2d_93/Conv2D_weights", "shape": [1, 1, 1088, 128], "dtype": "float32"}, {"name": "StatefulPartitionedCall/functional_1/conv2d_93/Conv2D_bn_offset", "shape": [128], "dtype": "float32"}, {"name": "StatefulPartitionedCall/functional_1/conv2d_94/Conv2D_weights", "shape": [1, 7, 128, 160], "dtype": "float32"}, {"name": "StatefulPartitionedCall/functional_1/conv2d_94/Conv2D_bn_offset", "shape": [160], "dtype": "float32"}, {"name": "StatefulPartitionedCall/functional_1/conv2d_95/Conv2D_weights", "shape": [7, 1, 160, 192], "dtype": "float32"}, {"name": "StatefulPartitionedCall/functional_1/conv2d_95/Conv2D_bn_offset", "shape": [192], "dtype": "float32"}, {"name": "StatefulPartitionedCall/functional_1/conv2d_96/Conv2D_weights", "shape": [1, 1, 1088, 192], "dtype": "float32"}, {"name": "StatefulPartitionedCall/functional_1/conv2d_96/Conv2D_bn_offset", "shape": [192], "dtype": "float32"}, {"name": "StatefulPartitionedCall/functional_1/conv2d_97/Conv2D_weights", "shape": [1, 1, 1088, 128], "dtype": "float32"}, {"name": "StatefulPartitionedCall/functional_1/conv2d_97/Conv2D_bn_offset", "shape": [128], "dtype": "float32"}, {"name": "StatefulPartitionedCall/functional_1/conv2d_98/Conv2D_weights", "shape": [1, 7, 128, 160], "dtype": "float32"}, {"name": "StatefulPartitionedCall/functional_1/conv2d_98/Conv2D_bn_offset", "shape": [160], "dtype": "float32"}, {"name": "StatefulPartitionedCall/functional_1/conv2d_99/Conv2D_weights", "shape": [7, 1, 160, 192], "dtype": "float32"}, {"name": "StatefulPartitionedCall/functional_1/conv2d_99/Conv2D_bn_offset", "shape": [192], "dtype": "float32"}, {"name": "StatefulPartitionedCall/functional_1/conv2d_100/Conv2D_weights", "shape": [1, 1, 1088, 192], "dtype": "float32"}, {"name": "StatefulPartitionedCall/functional_1/conv2d_100/Conv2D_bn_offset", "shape": [192], "dtype": "float32"}, {"name": "StatefulPartitionedCall/functional_1/conv2d_101/Conv2D_weights", "shape": [1, 1, 1088, 128], "dtype": "float32"}, {"name": "StatefulPartitionedCall/functional_1/conv2d_101/Conv2D_bn_offset", "shape": [128], "dtype": "float32"}, {"name": "StatefulPartitionedCall/functional_1/conv2d_102/Conv2D_weights", "shape": [1, 7, 128, 160], "dtype": "float32"}, {"name": "StatefulPartitionedCall/functional_1/conv2d_102/Conv2D_bn_offset", "shape": [160], "dtype": "float32"}, {"name": "StatefulPartitionedCall/functional_1/conv2d_103/Conv2D_weights", "shape": [7, 1, 160, 192], "dtype": "float32"}, {"name": "StatefulPartitionedCall/functional_1/conv2d_103/Conv2D_bn_offset", "shape": [192], "dtype": "float32"}, {"name": "StatefulPartitionedCall/functional_1/conv2d_104/Conv2D_weights", "shape": [1, 1, 1088, 192], "dtype": "float32"}, {"name": "StatefulPartitionedCall/functional_1/conv2d_104/Conv2D_bn_offset", "shape": [192], "dtype": "float32"}, {"name": "StatefulPartitionedCall/functional_1/conv2d_105/Conv2D_weights", "shape": [1, 1, 1088, 128], "dtype": "float32"}, {"name": "StatefulPartitionedCall/functional_1/conv2d_105/Conv2D_bn_offset", "shape": [128], "dtype": "float32"}, {"name": "StatefulPartitionedCall/functional_1/conv2d_106/Conv2D_weights", "shape": [1, 7, 128, 160], "dtype": "float32"}, {"name": "StatefulPartitionedCall/functional_1/conv2d_106/Conv2D_bn_offset", "shape": [160], "dtype": "float32"}, {"name": "StatefulPartitionedCall/functional_1/conv2d_107/Conv2D_weights", "shape": [7, 1, 160, 192], "dtype": "float32"}, {"name": "StatefulPartitionedCall/functional_1/conv2d_107/Conv2D_bn_offset", "shape": [192], "dtype": "float32"}, {"name": "StatefulPartitionedCall/functional_1/conv2d_108/Conv2D_weights", "shape": [1, 1, 1088, 192], "dtype": "float32"}, {"name": "StatefulPartitionedCall/functional_1/conv2d_108/Conv2D_bn_offset", "shape": [192], "dtype": "float32"}, {"name": "StatefulPartitionedCall/functional_1/conv2d_109/Conv2D_weights", "shape": [1, 1, 1088, 128], "dtype": "float32"}, {"name": "StatefulPartitionedCall/functional_1/conv2d_109/Conv2D_bn_offset", "shape": [128], "dtype": "float32"}, {"name": "StatefulPartitionedCall/functional_1/conv2d_110/Conv2D_weights", "shape": [1, 7, 128, 160], "dtype": "float32"}, {"name": "StatefulPartitionedCall/functional_1/conv2d_110/Conv2D_bn_offset", "shape": [160], "dtype": "float32"}, {"name": "StatefulPartitionedCall/functional_1/conv2d_111/Conv2D_weights", "shape": [7, 1, 160, 192], "dtype": "float32"}, {"name": "StatefulPartitionedCall/functional_1/conv2d_111/Conv2D_bn_offset", "shape": [192], "dtype": "float32"}, {"name": "StatefulPartitionedCall/functional_1/conv2d_112/Conv2D_weights", "shape": [1, 1, 1088, 192], "dtype": "float32"}, {"name": "StatefulPartitionedCall/functional_1/conv2d_112/Conv2D_bn_offset", "shape": [192], "dtype": "float32"}, {"name": "StatefulPartitionedCall/functional_1/conv2d_113/Conv2D_weights", "shape": [1, 1, 1088, 128], "dtype": "float32"}, {"name": "StatefulPartitionedCall/functional_1/conv2d_113/Conv2D_bn_offset", "shape": [128], "dtype": "float32"}, {"name": "StatefulPartitionedCall/functional_1/conv2d_114/Conv2D_weights", "shape": [1, 7, 128, 160], "dtype": "float32"}, {"name": "StatefulPartitionedCall/functional_3/conv2d_156/Conv2D_1_weights", "shape": [1, 1, 1088, 256], "dtype": "float32"}, {"name": "StatefulPartitionedCall/functional_1/conv2d_114/Conv2D_bn_offset", "shape": [160], "dtype": "float32"}, {"name": "StatefulPartitionedCall/functional_3/conv2d_190/Conv2D_1_weights", "shape": [3, 1, 224, 256], "dtype": "float32"}, {"name": "StatefulPartitionedCall/functional_1/conv2d_115/Conv2D_weights", "shape": [7, 1, 160, 192], "dtype": "float32"}, {"name": "StatefulPartitionedCall/functional_3/conv2d_156/Conv2D_1_bn_offset", "shape": [256], "dtype": "float32"}, {"name": "StatefulPartitionedCall/functional_1/conv2d_115/Conv2D_bn_offset", "shape": [192], "dtype": "float32"}, {"name": "StatefulPartitionedCall/functional_1/conv2d_116/Conv2D_weights", "shape": [1, 1, 1088, 192], "dtype": "float32"}, {"name": "StatefulPartitionedCall/functional_3/conv2d_158/Conv2D_1_weights", "shape": [1, 1, 1088, 256], "dtype": "float32"}, {"name": "StatefulPartitionedCall/functional_1/conv2d_116/Conv2D_bn_offset", "shape": [192], "dtype": "float32"}, {"name": "StatefulPartitionedCall/functional_3/conv2d_190/Conv2D_1_bn_offset", "shape": [256], "dtype": "float32"}, {"name": "StatefulPartitionedCall/functional_1/conv2d_117/Conv2D_weights", "shape": [1, 1, 1088, 128], "dtype": "float32"}, {"name": "StatefulPartitionedCall/functional_3/conv2d_158/Conv2D_1_bn_offset", "shape": [256], "dtype": "float32"}, {"name": "StatefulPartitionedCall/functional_1/conv2d_117/Conv2D_bn_offset", "shape": [128], "dtype": "float32"}, {"name": "StatefulPartitionedCall/functional_3/conv2d_201/Conv2D_1_bn_offset", "shape": [224], "dtype": "float32"}, {"name": "StatefulPartitionedCall/functional_1/conv2d_118/Conv2D_weights", "shape": [1, 7, 128, 160], "dtype": "float32"}, {"name": "StatefulPartitionedCall/functional_1/conv2d_118/Conv2D_bn_offset", "shape": [160], "dtype": "float32"}, {"name": "StatefulPartitionedCall/functional_3/conv2d_160/Conv2D_1_weights", "shape": [1, 1, 1088, 256], "dtype": "float32"}, {"name": "StatefulPartitionedCall/functional_1/conv2d_119/Conv2D_weights", "shape": [7, 1, 160, 192], "dtype": "float32"}, {"name": "StatefulPartitionedCall/functional_1/conv2d_119/Conv2D_bn_offset", "shape": [192], "dtype": "float32"}, {"name": "StatefulPartitionedCall/functional_3/conv2d_160/Conv2D_1_bn_offset", "shape": [256], "dtype": "float32"}, {"name": "StatefulPartitionedCall/functional_1/conv2d_120/Conv2D_weights", "shape": [1, 1, 1088, 192], "dtype": "float32"}, {"name": "StatefulPartitionedCall/functional_1/conv2d_120/Conv2D_bn_offset", "shape": [192], "dtype": "float32"}, {"name": "StatefulPartitionedCall/functional_3/conv2d_157/Conv2D_1_weights", "shape": [3, 3, 256, 384], "dtype": "float32"}, {"name": "StatefulPartitionedCall/functional_1/conv2d_121/Conv2D_weights", "shape": [1, 1, 1088, 128], "dtype": "float32"}, {"name": "StatefulPartitionedCall/functional_1/conv2d_121/Conv2D_bn_offset", "shape": [128], "dtype": "float32"}, {"name": "StatefulPartitionedCall/functional_3/conv2d_157/Conv2D_1_bn_offset", "shape": [384], "dtype": "float32"}, {"name": "StatefulPartitionedCall/functional_1/conv2d_122/Conv2D_weights", "shape": [1, 7, 128, 160], "dtype": "float32"}, {"name": "StatefulPartitionedCall/functional_1/conv2d_122/Conv2D_bn_offset", "shape": [160], "dtype": "float32"}, {"name": "StatefulPartitionedCall/functional_1/conv2d_123/Conv2D_weights", "shape": [7, 1, 160, 192], "dtype": "float32"}, {"name": "StatefulPartitionedCall/functional_3/conv2d_159/Conv2D_1_weights", "shape": [3, 3, 256, 288], "dtype": "float32"}, {"name": "StatefulPartitionedCall/functional_1/conv2d_123/Conv2D_bn_offset", "shape": [192], "dtype": "float32"}, {"name": "StatefulPartitionedCall/functional_3/conv2d_159/Conv2D_1_bn_offset", "shape": [288], "dtype": "float32"}, {"name": "StatefulPartitionedCall/functional_1/conv2d_124/Conv2D_weights", "shape": [1, 1, 1088, 192], "dtype": "float32"}, {"name": "StatefulPartitionedCall/functional_1/conv2d_124/Conv2D_bn_offset", "shape": [192], "dtype": "float32"}, {"name": "StatefulPartitionedCall/functional_1/conv2d_125/Conv2D_weights", "shape": [1, 1, 1088, 128], "dtype": "float32"}, {"name": "StatefulPartitionedCall/functional_3/conv2d_161/Conv2D_1_weights", "shape": [3, 3, 256, 288], "dtype": "float32"}, {"name": "StatefulPartitionedCall/functional_1/conv2d_125/Conv2D_bn_offset", "shape": [128], "dtype": "float32"}, {"name": "StatefulPartitionedCall/functional_1/conv2d_126/Conv2D_weights", "shape": [1, 7, 128, 160], "dtype": "float32"}, {"name": "StatefulPartitionedCall/functional_3/conv2d_161/Conv2D_1_bn_offset", "shape": [288], "dtype": "float32"}, {"name": "StatefulPartitionedCall/functional_1/conv2d_126/Conv2D_bn_offset", "shape": [160], "dtype": "float32"}, {"name": "StatefulPartitionedCall/functional_3/conv2d_191/Conv2D_1_weights", "shape": [1, 1, 2080, 192], "dtype": "float32"}, {"name": "StatefulPartitionedCall/functional_1/conv2d_127/Conv2D_weights", "shape": [7, 1, 160, 192], "dtype": "float32"}, {"name": "StatefulPartitionedCall/functional_1/conv2d_127/Conv2D_bn_offset", "shape": [192], "dtype": "float32"}, {"name": "StatefulPartitionedCall/functional_3/conv2d_162/Conv2D_1_weights", "shape": [3, 3, 288, 320], "dtype": "float32"}, {"name": "StatefulPartitionedCall/functional_1/conv2d_128/Conv2D_weights", "shape": [1, 1, 1088, 192], "dtype": "float32"}, {"name": "StatefulPartitionedCall/functional_3/conv2d_162/Conv2D_1_bn_offset", "shape": [320], "dtype": "float32"}, {"name": "StatefulPartitionedCall/functional_1/conv2d_128/Conv2D_bn_offset", "shape": [192], "dtype": "float32"}, {"name": "StatefulPartitionedCall/functional_3/conv2d_191/Conv2D_1_bn_offset", "shape": [192], "dtype": "float32"}, {"name": "StatefulPartitionedCall/functional_1/conv2d_129/Conv2D_weights", "shape": [1, 1, 1088, 128], "dtype": "float32"}, {"name": "StatefulPartitionedCall/functional_1/conv2d_129/Conv2D_bn_offset", "shape": [128], "dtype": "float32"}, {"name": "StatefulPartitionedCall/functional_1/conv2d_130/Conv2D_weights", "shape": [1, 7, 128, 160], "dtype": "float32"}, {"name": "StatefulPartitionedCall/functional_3/conv2d_163/Conv2D_1_weights", "shape": [1, 1, 2080, 192], "dtype": "float32"}, {"name": "StatefulPartitionedCall/functional_1/conv2d_130/Conv2D_bn_offset", "shape": [160], "dtype": "float32"}, {"name": "StatefulPartitionedCall/functional_3/conv2d_202/Conv2D_1_weights", "shape": [3, 1, 224, 256], "dtype": "float32"}, {"name": "StatefulPartitionedCall/functional_1/conv2d_131/Conv2D_weights", "shape": [7, 1, 160, 192], "dtype": "float32"}, {"name": "StatefulPartitionedCall/functional_3/conv2d_163/Conv2D_1_bn_offset", "shape": [192], "dtype": "float32"}, {"name": "StatefulPartitionedCall/functional_1/conv2d_131/Conv2D_bn_offset", "shape": [192], "dtype": "float32"}, {"name": "StatefulPartitionedCall/functional_1/conv2d_132/Conv2D_weights", "shape": [1, 1, 1088, 192], "dtype": "float32"}, {"name": "StatefulPartitionedCall/functional_3/conv2d_164/Conv2D_1_weights", "shape": [1, 1, 2080, 192], "dtype": "float32"}, {"name": "StatefulPartitionedCall/functional_1/conv2d_132/Conv2D_bn_offset", "shape": [192], "dtype": "float32"}, {"name": "StatefulPartitionedCall/functional_3/conv2d_192/Conv2D_1_weights", "shape": [1, 1, 2080, 192], "dtype": "float32"}, {"name": "StatefulPartitionedCall/functional_1/conv2d_133/Conv2D_weights", "shape": [1, 1, 1088, 128], "dtype": "float32"}, {"name": "StatefulPartitionedCall/functional_3/conv2d_164/Conv2D_1_bn_offset", "shape": [192], "dtype": "float32"}, {"name": "StatefulPartitionedCall/functional_1/conv2d_133/Conv2D_bn_offset", "shape": [128], "dtype": "float32"}, {"name": "StatefulPartitionedCall/functional_1/conv2d_134/Conv2D_weights", "shape": [1, 7, 128, 160], "dtype": "float32"}, {"name": "StatefulPartitionedCall/functional_1/conv2d_134/Conv2D_bn_offset", "shape": [160], "dtype": "float32"}, {"name": "StatefulPartitionedCall/functional_3/conv2d_165/Conv2D_1_weights", "shape": [1, 3, 192, 224], "dtype": "float32"}, {"name": "StatefulPartitionedCall/functional_1/conv2d_135/Conv2D_weights", "shape": [7, 1, 160, 192], "dtype": "float32"}, {"name": "StatefulPartitionedCall/functional_3/conv2d_192/Conv2D_1_bn_offset", "shape": [192], "dtype": "float32"}, {"name": "StatefulPartitionedCall/functional_1/conv2d_135/Conv2D_bn_offset", "shape": [192], "dtype": "float32"}, {"name": "StatefulPartitionedCall/functional_3/conv2d_165/Conv2D_1_bn_offset", "shape": [224], "dtype": "float32"}, {"name": "StatefulPartitionedCall/functional_3/conv2d_202/Conv2D_1_bn_offset", "shape": [256], "dtype": "float32"}, {"name": "StatefulPartitionedCall/functional_1/conv2d_136/Conv2D_weights", "shape": [1, 1, 1088, 192], "dtype": "float32"}, {"name": "StatefulPartitionedCall/functional_1/conv2d_136/Conv2D_bn_offset", "shape": [192], "dtype": "float32"}, {"name": "StatefulPartitionedCall/functional_3/conv2d_166/Conv2D_1_weights", "shape": [3, 1, 224, 256], "dtype": "float32"}, {"name": "StatefulPartitionedCall/functional_1/conv2d_137/Conv2D_weights", "shape": [1, 1, 1088, 128], "dtype": "float32"}, {"name": "StatefulPartitionedCall/functional_1/conv2d_137/Conv2D_bn_offset", "shape": [128], "dtype": "float32"}, {"name": "StatefulPartitionedCall/functional_3/conv2d_166/Conv2D_1_bn_offset", "shape": [256], "dtype": "float32"}, {"name": "StatefulPartitionedCall/functional_1/conv2d_138/Conv2D_weights", "shape": [1, 7, 128, 160], "dtype": "float32"}, {"name": "StatefulPartitionedCall/functional_3/conv2d_193/Conv2D_1_weights", "shape": [1, 3, 192, 224], "dtype": "float32"}, {"name": "StatefulPartitionedCall/functional_1/conv2d_138/Conv2D_bn_offset", "shape": [160], "dtype": "float32"}, {"name": "StatefulPartitionedCall/functional_1/conv2d_139/Conv2D_weights", "shape": [7, 1, 160, 192], "dtype": "float32"}, {"name": "StatefulPartitionedCall/functional_1/conv2d_139/Conv2D_bn_offset", "shape": [192], "dtype": "float32"}, {"name": "StatefulPartitionedCall/functional_1/conv2d_140/Conv2D_weights", "shape": [1, 1, 1088, 192], "dtype": "float32"}, {"name": "StatefulPartitionedCall/functional_1/conv2d_140/Conv2D_bn_offset", "shape": [192], "dtype": "float32"}, {"name": "StatefulPartitionedCall/functional_1/conv2d_141/Conv2D_weights", "shape": [1, 1, 1088, 128], "dtype": "float32"}, {"name": "StatefulPartitionedCall/functional_1/conv2d_141/Conv2D_bn_offset", "shape": [128], "dtype": "float32"}, {"name": "StatefulPartitionedCall/functional_3/conv2d_167/Conv2D_1_weights", "shape": [1, 1, 2080, 192], "dtype": "float32"}, {"name": "StatefulPartitionedCall/functional_1/conv2d_142/Conv2D_weights", "shape": [1, 7, 128, 160], "dtype": "float32"}, {"name": "StatefulPartitionedCall/functional_3/conv2d_193/Conv2D_1_bn_offset", "shape": [224], "dtype": "float32"}, {"name": "StatefulPartitionedCall/functional_1/conv2d_142/Conv2D_bn_offset", "shape": [160], "dtype": "float32"}, {"name": "StatefulPartitionedCall/functional_3/conv2d_167/Conv2D_1_bn_offset", "shape": [192], "dtype": "float32"}, {"name": "StatefulPartitionedCall/functional_1/conv2d_143/Conv2D_weights", "shape": [7, 1, 160, 192], "dtype": "float32"}, {"name": "StatefulPartitionedCall/functional_1/conv2d_143/Conv2D_bn_offset", "shape": [192], "dtype": "float32"}, {"name": "StatefulPartitionedCall/functional_3/conv2d_168/Conv2D_1_weights", "shape": [1, 1, 2080, 192], "dtype": "float32"}, {"name": "StatefulPartitionedCall/functional_1/conv2d_144/Conv2D_weights", "shape": [1, 1, 1088, 192], "dtype": "float32"}, {"name": "StatefulPartitionedCall/functional_1/conv2d_144/Conv2D_bn_offset", "shape": [192], "dtype": "float32"}, {"name": "StatefulPartitionedCall/functional_3/conv2d_168/Conv2D_1_bn_offset", "shape": [192], "dtype": "float32"}, {"name": "StatefulPartitionedCall/functional_1/conv2d_145/Conv2D_weights", "shape": [1, 1, 1088, 128], "dtype": "float32"}, {"name": "StatefulPartitionedCall/functional_3/conv2d_194/Conv2D_1_weights", "shape": [3, 1, 224, 256], "dtype": "float32"}, {"name": "StatefulPartitionedCall/functional_1/conv2d_145/Conv2D_bn_offset", "shape": [128], "dtype": "float32"}, {"name": "StatefulPartitionedCall/functional_1/conv2d_146/Conv2D_weights", "shape": [1, 7, 128, 160], "dtype": "float32"}, {"name": "StatefulPartitionedCall/functional_3/conv2d_169/Conv2D_1_weights", "shape": [1, 3, 192, 224], "dtype": "float32"}, {"name": "StatefulPartitionedCall/functional_1/conv2d_146/Conv2D_bn_offset", "shape": [160], "dtype": "float32"}, {"name": "StatefulPartitionedCall/functional_1/conv2d_147/Conv2D_weights", "shape": [7, 1, 160, 192], "dtype": "float32"}, {"name": "StatefulPartitionedCall/functional_3/conv2d_169/Conv2D_1_bn_offset", "shape": [224], "dtype": "float32"}, {"name": "StatefulPartitionedCall/functional_1/conv2d_147/Conv2D_bn_offset", "shape": [192], "dtype": "float32"}, {"name": "StatefulPartitionedCall/functional_3/conv2d_194/Conv2D_1_bn_offset", "shape": [256], "dtype": "float32"}, {"name": "StatefulPartitionedCall/functional_1/conv2d_148/Conv2D_weights", "shape": [1, 1, 1088, 192], "dtype": "float32"}, {"name": "StatefulPartitionedCall/functional_3/conv2d_170/Conv2D_1_weights", "shape": [3, 1, 224, 256], "dtype": "float32"}, {"name": "StatefulPartitionedCall/functional_1/conv2d_148/Conv2D_bn_offset", "shape": [192], "dtype": "float32"}, {"name": "StatefulPartitionedCall/functional_1/conv2d_149/Conv2D_weights", "shape": [1, 1, 1088, 128], "dtype": "float32"}, {"name": "StatefulPartitionedCall/functional_3/conv2d_170/Conv2D_1_bn_offset", "shape": [256], "dtype": "float32"}, {"name": "StatefulPartitionedCall/functional_1/conv2d_149/Conv2D_bn_offset", "shape": [128], "dtype": "float32"}, {"name": "StatefulPartitionedCall/functional_1/conv2d_150/Conv2D_weights", "shape": [1, 7, 128, 160], "dtype": "float32"}, {"name": "StatefulPartitionedCall/functional_1/conv2d_150/Conv2D_bn_offset", "shape": [160], "dtype": "float32"}, {"name": "StatefulPartitionedCall/functional_1/conv2d_151/Conv2D_weights", "shape": [7, 1, 160, 192], "dtype": "float32"}, {"name": "StatefulPartitionedCall/functional_1/conv2d_151/Conv2D_bn_offset", "shape": [192], "dtype": "float32"}, {"name": "StatefulPartitionedCall/functional_1/conv2d_152/Conv2D_weights", "shape": [1, 1, 1088, 192], "dtype": "float32"}, {"name": "StatefulPartitionedCall/functional_1/conv2d_152/Conv2D_bn_offset", "shape": [192], "dtype": "float32"}, {"name": "StatefulPartitionedCall/functional_1/conv2d_153/Conv2D_weights", "shape": [1, 1, 1088, 128], "dtype": "float32"}, {"name": "StatefulPartitionedCall/functional_3/conv2d_171/Conv2D_1_weights", "shape": [1, 1, 2080, 192], "dtype": "float32"}, {"name": "StatefulPartitionedCall/functional_1/conv2d_153/Conv2D_bn_offset", "shape": [128], "dtype": "float32"}, {"name": "StatefulPartitionedCall/functional_1/conv2d_154/Conv2D_weights", "shape": [1, 7, 128, 160], "dtype": "float32"}, {"name": "StatefulPartitionedCall/functional_3/conv2d_171/Conv2D_1_bn_offset", "shape": [192], "dtype": "float32"}, {"name": "StatefulPartitionedCall/functional_1/conv2d_154/Conv2D_bn_offset", "shape": [160], "dtype": "float32"}, {"name": "StatefulPartitionedCall/functional_1/conv2d_155/Conv2D_weights", "shape": [7, 1, 160, 192], "dtype": "float32"}, {"name": "StatefulPartitionedCall/functional_1/conv2d_155/Conv2D_bn_offset", "shape": [192], "dtype": "float32"}, {"name": "StatefulPartitionedCall/functional_3/conv2d_172/Conv2D_1_weights", "shape": [1, 1, 2080, 192], "dtype": "float32"}, {"name": "StatefulPartitionedCall/functional_3/conv2d_172/Conv2D_1_bn_offset", "shape": [192], "dtype": "float32"}, {"name": "StatefulPartitionedCall/functional_3/conv2d_173/Conv2D_1_weights", "shape": [1, 3, 192, 224], "dtype": "float32"}, {"name": "StatefulPartitionedCall/functional_3/conv2d_156/Conv2D_weights", "shape": [1, 1, 1088, 256], "dtype": "float32"}, {"name": "StatefulPartitionedCall/functional_3/conv2d_156/Conv2D_bn_offset", "shape": [256], "dtype": "float32"}, {"name": "StatefulPartitionedCall/functional_3/conv2d_173/Conv2D_1_bn_offset", "shape": [224], "dtype": "float32"}, {"name": "StatefulPartitionedCall/functional_3/conv2d_158/Conv2D_weights", "shape": [1, 1, 1088, 256], "dtype": "float32"}, {"name": "StatefulPartitionedCall/functional_3/conv2d_195/Conv2D_1_weights", "shape": [1, 1, 2080, 192], "dtype": "float32"}, {"name": "StatefulPartitionedCall/functional_3/conv2d_158/Conv2D_bn_offset", "shape": [256], "dtype": "float32"}, {"name": "StatefulPartitionedCall/functional_3/conv2d_160/Conv2D_weights", "shape": [1, 1, 1088, 256], "dtype": "float32"}, {"name": "StatefulPartitionedCall/functional_3/conv2d_174/Conv2D_1_weights", "shape": [3, 1, 224, 256], "dtype": "float32"}, {"name": "StatefulPartitionedCall/functional_3/conv2d_160/Conv2D_bn_offset", "shape": [256], "dtype": "float32"}, {"name": "StatefulPartitionedCall/functional_3/conv2d_157/Conv2D_weights", "shape": [3, 3, 256, 384], "dtype": "float32"}, {"name": "StatefulPartitionedCall/functional_3/conv2d_174/Conv2D_1_bn_offset", "shape": [256], "dtype": "float32"}, {"name": "StatefulPartitionedCall/functional_3/conv2d_157/Conv2D_bn_offset", "shape": [384], "dtype": "float32"}, {"name": "StatefulPartitionedCall/functional_3/conv2d_195/Conv2D_1_bn_offset", "shape": [192], "dtype": "float32"}, {"name": "StatefulPartitionedCall/functional_3/conv2d_159/Conv2D_weights", "shape": [3, 3, 256, 288], "dtype": "float32"}, {"name": "StatefulPartitionedCall/functional_3/conv2d_159/Conv2D_bn_offset", "shape": [288], "dtype": "float32"}, {"name": "StatefulPartitionedCall/functional_3/conv2d_161/Conv2D_weights", "shape": [3, 3, 256, 288], "dtype": "float32"}, {"name": "StatefulPartitionedCall/functional_3/conv_7b/Conv2D_1_weights", "shape": [1, 1, 2080, 1536], "dtype": "float32"}, {"name": "StatefulPartitionedCall/functional_3/conv2d_161/Conv2D_bn_offset", "shape": [288], "dtype": "float32"}, {"name": "StatefulPartitionedCall/functional_3/conv2d_162/Conv2D_weights", "shape": [3, 3, 288, 320], "dtype": "float32"}, {"name": "StatefulPartitionedCall/functional_3/conv2d_162/Conv2D_bn_offset", "shape": [320], "dtype": "float32"}, {"name": "StatefulPartitionedCall/functional_3/conv2d_163/Conv2D_weights", "shape": [1, 1, 2080, 192], "dtype": "float32"}, {"name": "StatefulPartitionedCall/functional_3/conv2d_163/Conv2D_bn_offset", "shape": [192], "dtype": "float32"}, {"name": "StatefulPartitionedCall/functional_3/conv2d_175/Conv2D_1_weights", "shape": [1, 1, 2080, 192], "dtype": "float32"}, {"name": "StatefulPartitionedCall/functional_3/conv2d_164/Conv2D_weights", "shape": [1, 1, 2080, 192], "dtype": "float32"}, {"name": "StatefulPartitionedCall/functional_3/conv2d_164/Conv2D_bn_offset", "shape": [192], "dtype": "float32"}, {"name": "StatefulPartitionedCall/functional_3/conv2d_175/Conv2D_1_bn_offset", "shape": [192], "dtype": "float32"}, {"name": "StatefulPartitionedCall/functional_3/conv2d_165/Conv2D_weights", "shape": [1, 3, 192, 224], "dtype": "float32"}, {"name": "StatefulPartitionedCall/functional_3/conv2d_196/Conv2D_1_weights", "shape": [1, 1, 2080, 192], "dtype": "float32"}, {"name": "StatefulPartitionedCall/functional_3/conv2d_165/Conv2D_bn_offset", "shape": [224], "dtype": "float32"}, {"name": "StatefulPartitionedCall/functional_3/conv2d_166/Conv2D_weights", "shape": [3, 1, 224, 256], "dtype": "float32"}, {"name": "StatefulPartitionedCall/functional_3/conv2d_176/Conv2D_1_weights", "shape": [1, 1, 2080, 192], "dtype": "float32"}, {"name": "StatefulPartitionedCall/functional_3/conv2d_166/Conv2D_bn_offset", "shape": [256], "dtype": "float32"}, {"name": "StatefulPartitionedCall/functional_3/conv2d_176/Conv2D_1_bn_offset", "shape": [192], "dtype": "float32"}, {"name": "StatefulPartitionedCall/functional_3/conv2d_167/Conv2D_weights", "shape": [1, 1, 2080, 192], "dtype": "float32"}, {"name": "StatefulPartitionedCall/functional_3/conv2d_196/Conv2D_1_bn_offset", "shape": [192], "dtype": "float32"}, {"name": "StatefulPartitionedCall/functional_3/conv2d_167/Conv2D_bn_offset", "shape": [192], "dtype": "float32"}, {"name": "StatefulPartitionedCall/functional_3/conv2d_168/Conv2D_weights", "shape": [1, 1, 2080, 192], "dtype": "float32"}, {"name": "StatefulPartitionedCall/functional_3/conv2d_177/Conv2D_1_weights", "shape": [1, 3, 192, 224], "dtype": "float32"}, {"name": "StatefulPartitionedCall/functional_3/conv2d_168/Conv2D_bn_offset", "shape": [192], "dtype": "float32"}, {"name": "StatefulPartitionedCall/functional_3/conv_7b/Conv2D_1_bn_offset", "shape": [1536], "dtype": "float32"}, {"name": "StatefulPartitionedCall/functional_3/conv2d_169/Conv2D_weights", "shape": [1, 3, 192, 224], "dtype": "float32"}, {"name": "StatefulPartitionedCall/functional_3/conv2d_177/Conv2D_1_bn_offset", "shape": [224], "dtype": "float32"}, {"name": "StatefulPartitionedCall/functional_3/conv2d_169/Conv2D_bn_offset", "shape": [224], "dtype": "float32"}, {"name": "StatefulPartitionedCall/functional_3/conv2d_170/Conv2D_weights", "shape": [3, 1, 224, 256], "dtype": "float32"}, {"name": "StatefulPartitionedCall/functional_3/conv2d_170/Conv2D_bn_offset", "shape": [256], "dtype": "float32"}, {"name": "StatefulPartitionedCall/functional_3/conv2d_178/Conv2D_1_weights", "shape": [3, 1, 224, 256], "dtype": "float32"}, {"name": "StatefulPartitionedCall/functional_3/conv2d_197/Conv2D_1_weights", "shape": [1, 3, 192, 224], "dtype": "float32"}, {"name": "StatefulPartitionedCall/functional_3/conv2d_171/Conv2D_weights", "shape": [1, 1, 2080, 192], "dtype": "float32"}, {"name": "StatefulPartitionedCall/functional_3/conv2d_178/Conv2D_1_bn_offset", "shape": [256], "dtype": "float32"}, {"name": "StatefulPartitionedCall/functional_3/conv2d_171/Conv2D_bn_offset", "shape": [192], "dtype": "float32"}, {"name": "StatefulPartitionedCall/functional_3/conv2d_172/Conv2D_weights", "shape": [1, 1, 2080, 192], "dtype": "float32"}, {"name": "StatefulPartitionedCall/functional_3/conv2d_172/Conv2D_bn_offset", "shape": [192], "dtype": "float32"}, {"name": "StatefulPartitionedCall/functional_3/conv2d_173/Conv2D_weights", "shape": [1, 3, 192, 224], "dtype": "float32"}, {"name": "StatefulPartitionedCall/functional_3/conv2d_197/Conv2D_1_bn_offset", "shape": [224], "dtype": "float32"}, {"name": "StatefulPartitionedCall/functional_3/conv2d_173/Conv2D_bn_offset", "shape": [224], "dtype": "float32"}, {"name": "StatefulPartitionedCall/functional_3/conv2d_174/Conv2D_weights", "shape": [3, 1, 224, 256], "dtype": "float32"}, {"name": "StatefulPartitionedCall/functional_3/conv2d_174/Conv2D_bn_offset", "shape": [256], "dtype": "float32"}, {"name": "StatefulPartitionedCall/functional_3/conv2d_175/Conv2D_weights", "shape": [1, 1, 2080, 192], "dtype": "float32"}, {"name": "StatefulPartitionedCall/functional_3/conv2d_179/Conv2D_1_weights", "shape": [1, 1, 2080, 192], "dtype": "float32"}, {"name": "StatefulPartitionedCall/functional_3/conv2d_175/Conv2D_bn_offset", "shape": [192], "dtype": "float32"}, {"name": "StatefulPartitionedCall/functional_3/conv2d_176/Conv2D_weights", "shape": [1, 1, 2080, 192], "dtype": "float32"}, {"name": "StatefulPartitionedCall/functional_3/conv2d_179/Conv2D_1_bn_offset", "shape": [192], "dtype": "float32"}, {"name": "StatefulPartitionedCall/functional_3/conv2d_176/Conv2D_bn_offset", "shape": [192], "dtype": "float32"}, {"name": "StatefulPartitionedCall/functional_3/conv2d_177/Conv2D_weights", "shape": [1, 3, 192, 224], "dtype": "float32"}, {"name": "StatefulPartitionedCall/functional_3/conv2d_177/Conv2D_bn_offset", "shape": [224], "dtype": "float32"}, {"name": "StatefulPartitionedCall/functional_3/conv2d_180/Conv2D_1_weights", "shape": [1, 1, 2080, 192], "dtype": "float32"}, {"name": "StatefulPartitionedCall/functional_3/conv2d_178/Conv2D_weights", "shape": [3, 1, 224, 256], "dtype": "float32"}, {"name": "StatefulPartitionedCall/functional_3/conv2d_198/Conv2D_1_weights", "shape": [3, 1, 224, 256], "dtype": "float32"}, {"name": "StatefulPartitionedCall/functional_3/conv2d_178/Conv2D_bn_offset", "shape": [256], "dtype": "float32"}, {"name": "StatefulPartitionedCall/functional_3/conv2d_180/Conv2D_1_bn_offset", "shape": [192], "dtype": "float32"}, {"name": "StatefulPartitionedCall/functional_3/conv2d_179/Conv2D_weights", "shape": [1, 1, 2080, 192], "dtype": "float32"}, {"name": "StatefulPartitionedCall/functional_3/conv2d_179/Conv2D_bn_offset", "shape": [192], "dtype": "float32"}, {"name": "StatefulPartitionedCall/functional_3/conv2d_181/Conv2D_1_weights", "shape": [1, 3, 192, 224], "dtype": "float32"}, {"name": "StatefulPartitionedCall/functional_3/conv2d_180/Conv2D_weights", "shape": [1, 1, 2080, 192], "dtype": "float32"}, {"name": "StatefulPartitionedCall/functional_3/conv2d_198/Conv2D_1_bn_offset", "shape": [256], "dtype": "float32"}, {"name": "StatefulPartitionedCall/functional_3/conv2d_180/Conv2D_bn_offset", "shape": [192], "dtype": "float32"}, {"name": "StatefulPartitionedCall/functional_3/conv2d_181/Conv2D_1_bn_offset", "shape": [224], "dtype": "float32"}, {"name": "StatefulPartitionedCall/functional_3/conv2d_181/Conv2D_weights", "shape": [1, 3, 192, 224], "dtype": "float32"}, {"name": "StatefulPartitionedCall/functional_3/conv2d_181/Conv2D_bn_offset", "shape": [224], "dtype": "float32"}, {"name": "StatefulPartitionedCall/functional_3/conv2d_182/Conv2D_weights", "shape": [3, 1, 224, 256], "dtype": "float32"}, {"name": "StatefulPartitionedCall/functional_3/conv2d_182/Conv2D_1_weights", "shape": [3, 1, 224, 256], "dtype": "float32"}, {"name": "StatefulPartitionedCall/functional_3/conv2d_182/Conv2D_bn_offset", "shape": [256], "dtype": "float32"}, {"name": "StatefulPartitionedCall/functional_3/conv2d_182/Conv2D_1_bn_offset", "shape": [256], "dtype": "float32"}, {"name": "StatefulPartitionedCall/functional_3/conv2d_183/Conv2D_weights", "shape": [1, 1, 2080, 192], "dtype": "float32"}, {"name": "StatefulPartitionedCall/functional_3/conv2d_183/Conv2D_bn_offset", "shape": [192], "dtype": "float32"}, {"name": "StatefulPartitionedCall/functional_3/conv2d_184/Conv2D_weights", "shape": [1, 1, 2080, 192], "dtype": "float32"}, {"name": "StatefulPartitionedCall/functional_3/conv2d_184/Conv2D_bn_offset", "shape": [192], "dtype": "float32"}, {"name": "StatefulPartitionedCall/functional_3/conv2d_185/Conv2D_weights", "shape": [1, 3, 192, 224], "dtype": "float32"}, {"name": "StatefulPartitionedCall/functional_3/conv2d_185/Conv2D_bn_offset", "shape": [224], "dtype": "float32"}, {"name": "StatefulPartitionedCall/functional_3/conv2d_186/Conv2D_weights", "shape": [3, 1, 224, 256], "dtype": "float32"}, {"name": "StatefulPartitionedCall/functional_3/conv2d_186/Conv2D_bn_offset", "shape": [256], "dtype": "float32"}, {"name": "StatefulPartitionedCall/functional_3/conv2d_183/Conv2D_1_weights", "shape": [1, 1, 2080, 192], "dtype": "float32"}, {"name": "StatefulPartitionedCall/functional_3/conv2d_187/Conv2D_weights", "shape": [1, 1, 2080, 192], "dtype": "float32"}, {"name": "StatefulPartitionedCall/functional_3/conv2d_187/Conv2D_bn_offset", "shape": [192], "dtype": "float32"}, {"name": "StatefulPartitionedCall/functional_3/conv2d_183/Conv2D_1_bn_offset", "shape": [192], "dtype": "float32"}, {"name": "StatefulPartitionedCall/functional_3/conv2d_188/Conv2D_weights", "shape": [1, 1, 2080, 192], "dtype": "float32"}, {"name": "StatefulPartitionedCall/functional_3/conv2d_188/Conv2D_bn_offset", "shape": [192], "dtype": "float32"}, {"name": "StatefulPartitionedCall/functional_3/conv2d_189/Conv2D_weights", "shape": [1, 3, 192, 224], "dtype": "float32"}, {"name": "StatefulPartitionedCall/functional_3/conv2d_184/Conv2D_1_weights", "shape": [1, 1, 2080, 192], "dtype": "float32"}, {"name": "StatefulPartitionedCall/functional_3/conv2d_189/Conv2D_bn_offset", "shape": [224], "dtype": "float32"}, {"name": "StatefulPartitionedCall/functional_3/conv2d_190/Conv2D_weights", "shape": [3, 1, 224, 256], "dtype": "float32"}, {"name": "StatefulPartitionedCall/functional_3/conv2d_184/Conv2D_1_bn_offset", "shape": [192], "dtype": "float32"}, {"name": "StatefulPartitionedCall/functional_3/conv2d_190/Conv2D_bn_offset", "shape": [256], "dtype": "float32"}, {"name": "StatefulPartitionedCall/functional_3/conv2d_191/Conv2D_weights", "shape": [1, 1, 2080, 192], "dtype": "float32"}, {"name": "StatefulPartitionedCall/functional_3/conv2d_185/Conv2D_1_weights", "shape": [1, 3, 192, 224], "dtype": "float32"}, {"name": "StatefulPartitionedCall/functional_3/conv2d_191/Conv2D_bn_offset", "shape": [192], "dtype": "float32"}, {"name": "StatefulPartitionedCall/functional_3/conv2d_199/Conv2D_1_weights", "shape": [1, 1, 2080, 192], "dtype": "float32"}, {"name": "StatefulPartitionedCall/functional_3/conv2d_192/Conv2D_weights", "shape": [1, 1, 2080, 192], "dtype": "float32"}, {"name": "StatefulPartitionedCall/functional_3/conv2d_185/Conv2D_1_bn_offset", "shape": [224], "dtype": "float32"}, {"name": "StatefulPartitionedCall/functional_3/conv2d_192/Conv2D_bn_offset", "shape": [192], "dtype": "float32"}, {"name": "StatefulPartitionedCall/functional_3/conv2d_193/Conv2D_weights", "shape": [1, 3, 192, 224], "dtype": "float32"}, {"name": "StatefulPartitionedCall/functional_3/conv2d_193/Conv2D_bn_offset", "shape": [224], "dtype": "float32"}, {"name": "StatefulPartitionedCall/functional_3/conv2d_186/Conv2D_1_weights", "shape": [3, 1, 224, 256], "dtype": "float32"}, {"name": "StatefulPartitionedCall/functional_3/conv2d_194/Conv2D_weights", "shape": [3, 1, 224, 256], "dtype": "float32"}, {"name": "StatefulPartitionedCall/functional_3/conv2d_199/Conv2D_1_bn_offset", "shape": [192], "dtype": "float32"}, {"name": "StatefulPartitionedCall/functional_3/conv2d_194/Conv2D_bn_offset", "shape": [256], "dtype": "float32"}, {"name": "StatefulPartitionedCall/functional_3/conv2d_186/Conv2D_1_bn_offset", "shape": [256], "dtype": "float32"}, {"name": "StatefulPartitionedCall/functional_3/conv2d_195/Conv2D_weights", "shape": [1, 1, 2080, 192], "dtype": "float32"}, {"name": "StatefulPartitionedCall/functional_3/conv2d_195/Conv2D_bn_offset", "shape": [192], "dtype": "float32"}, {"name": "StatefulPartitionedCall/functional_3/conv2d_196/Conv2D_weights", "shape": [1, 1, 2080, 192], "dtype": "float32"}, {"name": "StatefulPartitionedCall/functional_3/conv2d_196/Conv2D_bn_offset", "shape": [192], "dtype": "float32"}, {"name": "StatefulPartitionedCall/functional_3/conv2d_197/Conv2D_weights", "shape": [1, 3, 192, 224], "dtype": "float32"}, {"name": "StatefulPartitionedCall/functional_3/conv2d_197/Conv2D_bn_offset", "shape": [224], "dtype": "float32"}, {"name": "StatefulPartitionedCall/functional_3/conv2d_198/Conv2D_weights", "shape": [3, 1, 224, 256], "dtype": "float32"}, {"name": "StatefulPartitionedCall/functional_3/conv2d_198/Conv2D_bn_offset", "shape": [256], "dtype": "float32"}, {"name": "StatefulPartitionedCall/functional_3/conv2d_187/Conv2D_1_weights", "shape": [1, 1, 2080, 192], "dtype": "float32"}, {"name": "StatefulPartitionedCall/functional_3/conv2d_200/Conv2D_1_weights", "shape": [1, 1, 2080, 192], "dtype": "float32"}, {"name": "StatefulPartitionedCall/functional_3/conv2d_199/Conv2D_weights", "shape": [1, 1, 2080, 192], "dtype": "float32"}, {"name": "StatefulPartitionedCall/functional_3/conv2d_187/Conv2D_1_bn_offset", "shape": [192], "dtype": "float32"}, {"name": "StatefulPartitionedCall/functional_3/conv2d_199/Conv2D_bn_offset", "shape": [192], "dtype": "float32"}, {"name": "StatefulPartitionedCall/functional_3/conv2d_200/Conv2D_weights", "shape": [1, 1, 2080, 192], "dtype": "float32"}, {"name": "StatefulPartitionedCall/functional_3/conv2d_200/Conv2D_bn_offset", "shape": [192], "dtype": "float32"}, {"name": "StatefulPartitionedCall/functional_3/conv2d_188/Conv2D_1_weights", "shape": [1, 1, 2080, 192], "dtype": "float32"}, {"name": "StatefulPartitionedCall/functional_3/conv2d_201/Conv2D_weights", "shape": [1, 3, 192, 224], "dtype": "float32"}, {"name": "StatefulPartitionedCall/functional_3/conv2d_200/Conv2D_1_bn_offset", "shape": [192], "dtype": "float32"}, {"name": "StatefulPartitionedCall/functional_3/conv2d_201/Conv2D_bn_offset", "shape": [224], "dtype": "float32"}, {"name": "StatefulPartitionedCall/functional_3/conv2d_188/Conv2D_1_bn_offset", "shape": [192], "dtype": "float32"}, {"name": "StatefulPartitionedCall/functional_3/conv2d_202/Conv2D_weights", "shape": [3, 1, 224, 256], "dtype": "float32"}, {"name": "StatefulPartitionedCall/functional_3/conv2d_202/Conv2D_bn_offset", "shape": [256], "dtype": "float32"}, {"name": "StatefulPartitionedCall/functional_3/conv2d_189/Conv2D_1_weights", "shape": [1, 3, 192, 224], "dtype": "float32"}, {"name": "StatefulPartitionedCall/functional_3/conv_7b/Conv2D_weights", "shape": [1, 1, 2080, 1536], "dtype": "float32"}, {"name": "StatefulPartitionedCall/functional_3/conv_7b/Conv2D_bn_offset", "shape": [1536], "dtype": "float32"}, {"name": "StatefulPartitionedCall/functional_3/conv2d_189/Conv2D_1_bn_offset", "shape": [224], "dtype": "float32"}, {"name": "StatefulPartitionedCall/functional_3/conv2d_201/Conv2D_1_weights", "shape": [1, 3, 192, 224], "dtype": "float32"}, {"name": "ConstantFolding/StatefulPartitionedCall/Preprocessor/stack_const_axis", "shape": [], "dtype": "int32"}, {"name": "ConstantFolding/StatefulPartitionedCall/BatchMultiClassNonMaxSuppression/stack_10_const_axis", "shape": [], "dtype": "int32"}, {"name": "ConstantFolding/StatefulPartitionedCall/BatchMultiClassNonMaxSuppression_1/stack_4_const_axis", "shape": [], "dtype": "int32"}, {"name": "ConstantFolding/StatefulPartitionedCall/BatchMultiClassNonMaxSuppression/stack_5_const_axis", "shape": [], "dtype": "int32"}, {"name": "ConstantFolding/StatefulPartitionedCall/stack_3_const_axis", "shape": [], "dtype": "int32"}, {"name": "ConstantFolding/StatefulPartitionedCall/stack_6_const_axis", "shape": [], "dtype": "int32"}, {"name": "ConstantFolding/StatefulPartitionedCall/stack_9_const_axis", "shape": [], "dtype": "int32"}, {"name": "Identity_10", "shape": [4], "dtype": "float32"}, {"name": "ConstantFolding/StatefulPartitionedCall/BatchMultiClassNonMaxSuppression_1/stack_12_const_axis", "shape": [], "dtype": "int32"}, {"name": "ConstantFolding/StatefulPartitionedCall/BatchMultiClassNonMaxSuppression_1/PadOrClipBoxList/Slice_3/size_const_axis", "shape": [], "dtype": "int32"}, {"name": "ConstantFolding/StatefulPartitionedCall/BatchMultiClassNonMaxSuppression_1/PadOrClipBoxList/Slice_5/size_const_axis", "shape": [], "dtype": "int32"}, {"name": "ConstantFolding/StatefulPartitionedCall/BatchMultiClassNonMaxSuppression_1/PadOrClipBoxList/Slice_1/size_const_axis", "shape": [], "dtype": "int32"}, {"name": "ConstantFolding/StatefulPartitionedCall/BatchMultiClassNonMaxSuppression_1/PadOrClipBoxList/stack_3/values_1_const_axis", "shape": [], "dtype": "int32"}, {"name": "ConstantFolding/StatefulPartitionedCall/BatchMultiClassNonMaxSuppression_1/PadOrClipBoxList/stack_5/values_1_const_axis", "shape": [], "dtype": "int32"}, {"name": "ConstantFolding/StatefulPartitionedCall/BatchMultiClassNonMaxSuppression_1/PadOrClipBoxList/stack_1/values_1_const_axis", "shape": [], "dtype": "int32"}, {"name": "ConstantFolding/StatefulPartitionedCall/BatchMultiClassNonMaxSuppression_1/stack_11_const_axis", "shape": [], "dtype": "int32"}, {"name": "ConstantFolding/StatefulPartitionedCall/BatchMultiClassNonMaxSuppression_1/stack_6_const_axis", "shape": [], "dtype": "int32"}, {"name": "ConstantFolding/StatefulPartitionedCall/BatchMultiClassNonMaxSuppression_1/stack_10_const_axis", "shape": [], "dtype": "int32"}, {"name": "ConstantFolding/StatefulPartitionedCall/BatchMultiClassNonMaxSuppression_1/stack_8_const_axis", "shape": [], "dtype": "int32"}, {"name": "ConstantFolding/StatefulPartitionedCall/BatchMultiClassNonMaxSuppression_1/stack_7_const_axis", "shape": [], "dtype": "int32"}]}]}